models/student_model_quant.tflite (tflite, 193560 bytes, 53 tensors)

tfl.pseudo_qconst1 i1 [1, 144] scale=0.0023180179 zero_point=0
0	0xdc	-0.08344864
1	0xb3	-0.17848738
2	0x01	0.0023180179
3	0x13	0.04404234
4	0xe0	-0.07417657
5	0xa6	-0.2086216
6	0x06	0.013908107
7	0xe7	-0.05795045
8	0xd5	-0.09967477
9	0x9e	-0.22716576
10	0xd4	-0.101992786
11	0xc2	-0.14371711
12	0xff	-0.0023180179
13	0x9d	-0.22948377
14	0x33	0.11821891
15	0xd9	-0.0904027
16	0x08	0.018544143
17	0x94	-0.25034595
18	0xca	-0.12517297
19	0x92	-0.25498196
20	0x02	0.0046360358
21	0x28	0.09272072
22	0xa7	-0.2063036
23	0xae	-0.19007747
24	0xae	-0.19007747
25	0xd7	-0.095038734
26	0xb6	-0.17153332
27	0x07	0.016226126
28	0xa0	-0.22252971
29	0xfe	-0.0046360358
30	0x9b	-0.2341198
31	0x2c	0.101992786
32	0xe8	-0.055632427
33	0x1c	0.0649045
34	0x33	0.11821891
35	0x13	0.04404234
36	0xdc	-0.08344864
37	0x02	0.0046360358
38	0x05	0.01159009
39	0xf6	-0.02318018
40	0x09	0.02086216
41	0x1b	0.06258649
42	0x81	-0.29438826
43	0x03	0.0069540534
44	0xd1	-0.10894684
45	0x04	0.0092720715
46	0x87	-0.28048018
47	0xc1	-0.14603512
48	0xd0	-0.111264855
49	0xcd	-0.11821891
50	0xf2	-0.03245225
51	0x02	0.0046360358
52	0xd8	-0.09272072
53	0x04	0.0092720715
54	0xba	-0.16226125
55	0x09	0.02086216
56	0x24	0.08344864
57	0xa2	-0.21789367
58	0xeb	-0.048678376
59	0x07	0.016226126
60	0x03	0.0069540534
61	0x0e	0.03245225
62	0xc7	-0.13212702
63	0xce	-0.1159009
64	0x0b	0.025498196
65	0xc8	-0.129809
66	0xb6	-0.17153332
67	0xc4	-0.13908108
68	0x02	0.0046360358
69	0xd4	-0.101992786
70	0xb1	-0.18312341
71	0xc7	-0.13212702
72	0x0e	0.03245225
73	0xc0	-0.14835314
74	0xa0	-0.22252971
75	0xc5	-0.13676305
76	0xa0	-0.22252971
77	0x00	0.0
78	0x84	-0.28743422
79	0xad	-0.19239548
80	0xc1	-0.14603512
81	0xb4	-0.17616937
82	0xc2	-0.14371711
83	0x00	0.0
84	0xa9	-0.20166756
85	0xc4	-0.13908108
86	0x27	0.0904027
87	0xbe	-0.15298918
88	0x08	0.018544143
89	0xb0	-0.18544143
90	0x04	0.0092720715
91	0x9b	-0.2341198
92	0xa0	-0.22252971
93	0xe2	-0.06954054
94	0x16	0.050996393
95	0xb1	-0.18312341
96	0x9c	-0.2318018
97	0x8c	-0.26889008
98	0x08	0.018544143
99	0x04	0.0092720715
100	0x02	0.0046360358
101	0x03	0.0069540534
102	0xc6	-0.13444504
103	0x03	0.0069540534
104	0x00	0.0
105	0xb8	-0.16689728
106	0xf6	-0.02318018
107	0x93	-0.25266394
108	0xef	-0.039406303
109	0xa6	-0.2086216
110	0x27	0.0904027
111	0xd0	-0.111264855
112	0x01	0.0023180179
113	0x01	0.0023180179
114	0xad	-0.19239548
115	0xe7	-0.05795045
116	0xd4	-0.101992786
117	0xd1	-0.10894684
118	0xfe	-0.0046360358
119	0xc7	-0.13212702
120	0x07	0.016226126
121	0xb3	-0.17848738
122	0xca	-0.12517297
123	0x88	-0.27816215
124	0x38	0.129809
125	0x01	0.0023180179
126	0xb0	-0.18544143
127	0x03	0.0069540534
128	0x27	0.0904027
129	0xa2	-0.21789367
130	0xac	-0.1947135
131	0x1b	0.06258649
132	0x90	-0.259618
133	0x04	0.0092720715
134	0x2b	0.09967477
135	0x05	0.01159009
136	0x04	0.0092720715
137	0x1c	0.0649045
138	0xb8	-0.16689728
139	0x00	0.0
140	0x0c	0.027816214
141	0xe7	-0.05795045
142	0x04	0.0092720715
143	0x15	0.048678376

tfl.pseudo_qconst3 i1 [144, 1, 1, 24]
0	0xbd	-67
1	0x35	53
2	0xea	-22
3	0x1f	31
4	0xef	-17
5	0xbb	-69
6	0x1e	30
7	0x21	33
8	0xb5	-75
9	0x16	22
10	0x72	114
11	0xab	-85
12	0xd1	-47
13	0x59	89
14	0x7f	127
15	0x26	38
16	0x8b	-117
17	0x44	68
18	0xe8	-24
19	0x6d	109
20	0x0c	12
21	0xef	-17
22	0xa1	-95
23	0xcf	-49
24	0xb8	-72
25	0x7f	127
26	0xa4	-92
27	0x14	20
28	0x60	96
29	0x20	32
30	0x22	34
31	0xa0	-96
32	0xe8	-24
33	0x2f	47
34	0x46	70
35	0x91	-111
36	0x69	105
37	0x9b	-101
38	0x1d	29
39	0x10	16
40	0xc1	-63
41	0x49	73
42	0xd2	-46
43	0xc0	-64
44	0xcc	-52
45	0x84	-124
46	0x29	41
47	0xb6	-74
48	0x81	-127
49	0x71	113
50	0xe5	-27
51	0xc0	-64
52	0xb3	-77
53	0x1f	31
54	0xfb	-5
55	0x6f	111
56	0xd8	-40
57	0x73	115
58	0x2c	44
59	0x4c	76
60	0xbb	-69
61	0xdc	-36
62	0x5e	94
63	0xdd	-35
64	0x4b	75
65	0xf1	-15
66	0x2e	46
67	0xd1	-47
68	0xbf	-65
69	0x2b	43
70	0xb1	-79
71	0x63	99
72	0xd6	-42
73	0x49	73
74	0x56	86
75	0xf8	-8
76	0x44	68
77	0x15	21
78	0x33	51
79	0x81	-127
80	0x91	-111
81	0xf7	-9
82	0x5a	90
83	0xb1	-79
84	0xeb	-21
85	0x52	82
86	0x13	19
87	0xec	-20
88	0x2e	46
89	0x5c	92
90	0xa3	-93
91	0xc3	-61
92	0x04	4
93	0x9b	-101
94	0x0e	14
95	0x73	115
96	0xdd	-35
97	0x26	38
98	0x4f	79
99	0xb7	-73
100	0x5f	95
101	0x17	23
102	0x09	9
103	0xf1	-15
104	0x12	18
105	0x76	118
106	0xab	-85
107	0x06	6
108	0xc8	-56
109	0x69	105
110	0x7f	127
111	0xfd	-3
112	0x82	-126
113	0x92	-110
114	0xb1	-79
115	0x2d	45
116	0x45	69
117	0x97	-105
118	0x9d	-99
119	0x1e	30
120	0x41	65
121	0xc2	-62
122	0x16	22
123	0x2b	43
124	0xf7	-9
125	0x1a	26
126	0x25	37
127	0xad	-83
128	0xd0	-48
129	0x81	-127
130	0x3c	60
131	0x10	16
132	0x75	117
133	0x30	48
134	0x02	2
135	0xb2	-78
136	0x03	3
137	0xd8	-40
138	0x55	85
139	0x8f	-113
140	0xba	-70
141	0xa6	-90
142	0x4a	74
143	0x3d	61
144	0x44	68
145	0x7f	127
146	0x43	67
147	0xfd	-3
148	0xc8	-56
149	0xb8	-72
150	0x39	57
151	0xab	-85
152	0xa7	-89
153	0x7a	122
154	0x0c	12
155	0xc9	-55
156	0xd3	-45
157	0x9e	-98
158	0x58	88
159	0xd8	-40
160	0x2b	43
161	0x0c	12
162	0xda	-38
163	0xa8	-88
164	0x57	87
165	0x41	65
166	0x9e	-98
167	0x3e	62
168	0x20	32
169	0xf2	-14
170	0xe2	-30
171	0xf5	-11
172	0x13	19
173	0x1e	30
174	0x37	55
175	0x9f	-97
176	0xa6	-90
177	0x1a	26
178	0xa1	-95
179	0xc6	-58
180	0x45	69
181	0x0b	11
182	0xf2	-14
183	0x08	8
184	0xf7	-9
185	0x6c	108
186	0xc7	-57
187	0x98	-104
188	0x3f	63
189	0x81	-127
190	0x1e	30
191	0xf4	-12
192	0xea	-22
193	0x29	41
194	0x35	53
195	0xd1	-47
196	0x15	21
197	0xf6	-10
198	0x13	19
199	0x2e	46
200	0x7f	127
201	0xda	-38
202	0xeb	-21
203	0x2f	47
204	0x38	56
205	0xdc	-36
206	0x4b	75
207	0xd2	-46
208	0xce	-50
209	0xda	-38
210	0x29	41
211	0x1d	29
212	0xd0	-48
213	0x49	73
214	0x1b	27
215	0xe2	-30
216	0xd6	-42
217	0x0d	13
218	0xad	-83
219	0xd1	-47
220	0xa4	-92
221	0x51	81
222	0xf8	-8
223	0xee	-18
224	0x51	81
225	0xb7	-73
226	0xa4	-92
227	0x2d	45
228	0x7c	124
229	0x24	36
230	0x34	52
231	0x17	23
232	0x7f	127
233	0xbc	-68
234	0x6e	110
235	0x81	-127
236	0x6f	111
237	0x01	1
238	0x04	4
239	0x37	55
240	0x41	65
241	0x06	6
242	0xdc	-36
243	0x11	17
244	0xc9	-55
245	0x45	69
246	0x03	3
247	0x14	20
248	0x1b	27
249	0x00	0
250	0x8a	-118
251	0x14	20
252	0x1d	29
253	0xd2	-46
254	0x39	57
255	0xca	-54

tfl.pseudo_qconst5 i1 [24, 1, 1, 144]
0	0x49	73
1	0x22	34
2	0xc4	-60
3	0xda	-38
4	0x24	36
5	0xd9	-39
6	0x27	39
7	0x3d	61
8	0xe7	-25
9	0x47	71
10	0x53	83
11	0x1c	28
12	0x3b	59
13	0x16	22
14	0xb6	-74
15	0x0c	12
16	0xe3	-29
17	0x43	67
18	0xe6	-26
19	0xe6	-26
20	0xe3	-29
21	0x1b	27
22	0xfa	-6
23	0x48	72
24	0x37	55
25	0xce	-50
26	0xf8	-8
27	0xe2	-30
28	0x26	38
29	0xf7	-9
30	0x2c	44
31	0xd9	-39
32	0xd6	-42
33	0x51	81
34	0x2b	43
35	0x04	4
36	0xce	-50
37	0xff	-1
38	0x15	21
39	0xc8	-56
40	0x18	24
41	0x1a	26
42	0xc2	-62
43	0x2d	45
44	0xb1	-79
45	0xa5	-91
46	0x37	55
47	0x4c	76
48	0x1b	27
49	0x73	115
50	0x5d	93
51	0x14	20
52	0xf9	-7
53	0x4b	75
54	0x2a	42
55	0x33	51
56	0x1e	30
57	0x5d	93
58	0xe1	-31
59	0xfc	-4
60	0x09	9
61	0x47	71
62	0x43	67
63	0xc2	-62
64	0x07	7
65	0xbc	-68
66	0xcd	-51
67	0xb5	-75
68	0xca	-54
69	0x25	37
70	0xb4	-76
71	0xc2	-62
72	0xa6	-90
73	0xd5	-43
74	0xfb	-5
75	0xc0	-64
76	0x45	69
77	0x24	36
78	0x46	70
79	0x9d	-99
80	0xc2	-62
81	0x26	38
82	0xa8	-88
83	0xbb	-69
84	0xb2	-78
85	0x01	1
86	0x38	56
87	0xd6	-42
88	0x2d	45
89	0x1a	26
90	0x12	18
91	0x4f	79
92	0xb2	-78
93	0x2a	42
94	0x44	68
95	0x25	37
96	0x1e	30
97	0xf7	-9
98	0x7f	127
99	0x30	48
100	0xe0	-32
101	0xd1	-47
102	0x63	99
103	0xf0	-16
104	0x5b	91
105	0xfc	-4
106	0xe3	-29
107	0xc8	-56
108	0xf8	-8
109	0x33	51
110	0xc9	-55
111	0x12	18
112	0xd4	-44
113	0xc3	-61
114	0xfa	-6
115	0xde	-34
116	0xea	-22
117	0x0c	12
118	0xf9	-7
119	0x03	3
120	0xd3	-45
121	0xd8	-40
122	0x01	1
123	0xe3	-29
124	0xd3	-45
125	0xdb	-37
126	0xe1	-31
127	0x5b	91
128	0xee	-18
129	0x32	50
130	0x26	38
131	0x29	41
132	0x21	33
133	0x23	35
134	0x2f	47
135	0xc0	-64
136	0xdb	-37
137	0xd8	-40
138	0x33	51
139	0xc4	-60
140	0x35	53
141	0xe5	-27
142	0x0e	14
143	0x30	48
144	0xb4	-76
145	0xaf	-81
146	0xc1	-63
147	0x25	37
148	0x1b	27
149	0xe9	-23
150	0x8e	-114
151	0xa4	-92
152	0x28	40
153	0x59	89
154	0xcd	-51
155	0xfd	-3
156	0xe6	-26
157	0xa7	-89
158	0x37	55
159	0x2a	42
160	0x32	50
161	0xf7	-9
162	0x35	53
163	0xed	-19
164	0xd3	-45
165	0xb8	-72
166	0x2e	46
167	0xf2	-14
168	0xdb	-37
169	0x1b	27
170	0xd5	-43
171	0xe8	-24
172	0x03	3
173	0xc0	-64
174	0x5f	95
175	0x36	54
176	0xc6	-58
177	0xd2	-46
178	0xf5	-11
179	0x23	35
180	0x3b	59
181	0xc9	-55
182	0x81	-127
183	0x0e	14
184	0x29	41
185	0x31	49
186	0x48	72
187	0x51	81
188	0xfd	-3
189	0xc9	-55
190	0xf1	-15
191	0xbf	-65
192	0xc9	-55
193	0xe8	-24
194	0x25	37
195	0xb2	-78
196	0x06	6
197	0xeb	-21
198	0xd6	-42
199	0x70	112
200	0x67	103
201	0xa6	-90
202	0x42	66
203	0x11	17
204	0x38	56
205	0xc9	-55
206	0x28	40
207	0x31	49
208	0x55	85
209	0x20	32
210	0x92	-110
211	0xbf	-65
212	0xfb	-5
213	0x0b	11
214	0x14	20
215	0x23	35
216	0x3e	62
217	0x51	81
218	0xd1	-47
219	0xf3	-13
220	0x33	51
221	0xbf	-65
222	0xf3	-13
223	0x92	-110
224	0x42	66
225	0xd0	-48
226	0x88	-120
227	0x17	23
228	0xec	-20
229	0xc7	-57
230	0x15	21
231	0x4d	77
232	0xd8	-40
233	0x07	7
234	0x0f	15
235	0xa9	-87
236	0xb4	-76
237	0xc1	-63
238	0xce	-50
239	0x1c	28
240	0x58	88
241	0x19	25
242	0x2d	45
243	0x12	18
244	0x46	70
245	0xef	-17
246	0xee	-18
247	0x26	38
248	0x3e	62
249	0x3d	61
250	0xea	-22
251	0xbf	-65
252	0x44	68
253	0x5c	92
254	0xe6	-26
255	0x44	68

tfl.pseudo_qconst7 i1 [144, 1, 1, 40]
0	0xea	-22
1	0x1a	26
2	0x40	64
3	0xd3	-45
4	0xd9	-39
5	0x06	6
6	0xb9	-71
7	0x26	38
8	0xc1	-63
9	0xd3	-45
10	0x1b	27
11	0xc9	-55
12	0x7f	127
13	0xdb	-37
14	0x3c	60
15	0x23	35
16	0x0f	15
17	0xf9	-7
18	0x0f	15
19	0xd8	-40
20	0x0a	10
21	0xb4	-76
22	0x25	37
23	0xff	-1
24	0x10	16
25	0xd4	-44
26	0x4f	79
27	0xd9	-39
28	0xf7	-9
29	0x21	33
30	0xb2	-78
31	0xc2	-62
32	0xfb	-5
33	0x6e	110
34	0x51	81
35	0x12	18
36	0x32	50
37	0x4f	79
38	0x0b	11
39	0xb6	-74
40	0xac	-84
41	0xb4	-76
42	0xe8	-24
43	0x95	-107
44	0xf5	-11
45	0x1a	26
46	0x03	3
47	0xf8	-8
48	0xb6	-74
49	0xf9	-7
50	0x51	81
51	0x9e	-98
52	0x62	98
53	0x47	71
54	0x02	2
55	0xe2	-30
56	0x12	18
57	0xfe	-2
58	0x26	38
59	0xe5	-27
60	0x97	-105
61	0xdc	-36
62	0xe7	-25
63	0x1d	29
64	0xc3	-61
65	0x81	-127
66	0xcc	-52
67	0x05	5
68	0x4a	74
69	0x3c	60
70	0x34	52
71	0x22	34
72	0xe6	-26
73	0xea	-22
74	0xdf	-33
75	0xc6	-58
76	0x0d	13
77	0xfe	-2
78	0x57	87
79	0xe5	-27
80	0x20	32
81	0x3b	59
82	0xc1	-63
83	0x28	40
84	0xe5	-27
85	0xed	-19
86	0x34	52
87	0x00	0
88	0x3d	61
89	0x36	54
90	0x15	21
91	0xcc	-52
92	0x05	5
93	0xee	-18
94	0x2c	44
95	0xeb	-21
96	0xf3	-13
97	0x55	85
98	0xb9	-71
99	0x36	54
100	0x32	50
101	0xd6	-42
102	0x22	34
103	0xc6	-58
104	0xa3	-93
105	0xc3	-61
106	0x38	56
107	0x9e	-98
108	0xdb	-37
109	0x30	48
110	0xc4	-60
111	0x81	-127
112	0x59	89
113	0xca	-54
114	0x44	68
115	0xeb	-21
116	0xdf	-33
117	0xdb	-37
118	0xda	-38
119	0x3e	62
120	0xc8	-56
121	0xdd	-35
122	0x19	25
123	0x81	-127
124	0xa1	-95
125	0x79	121
126	0xeb	-21
127	0x21	33
128	0x63	99
129	0x3d	61
130	0xdd	-35
131	0x51	81
132	0xf4	-12
133	0x5b	91
134	0x26	38
135	0x04	4
136	0x0c	12
137	0x82	-126
138	0x4d	77
139	0x86	-122
140	0xc4	-60
141	0x18	24
142	0xdd	-35
143	0xb8	-72
144	0x33	51
145	0xe3	-29
146	0x75	117
147	0x5a	90
148	0xe5	-27
149	0xb6	-74
150	0x3f	63
151	0x40	64
152	0xa8	-88
153	0xb7	-73
154	0xaf	-81
155	0xc4	-60
156	0x99	-103
157	0x09	9
158	0xbe	-66
159	0xe9	-23
160	0xdc	-36
161	0x03	3
162	0x13	19
163	0x18	24
164	0x13	19
165	0x26	38
166	0x2f	47
167	0x2d	45
168	0x15	21
169	0x39	57
170	0x06	6
171	0x0b	11
172	0x4b	75
173	0xf3	-13
174	0x3f	63
175	0x01	1
176	0x0c	12
177	0x34	52
178	0x17	23
179	0x1f	31
180	0x0b	11
181	0x38	56
182	0xf8	-8
183	0xbc	-68
184	0x17	23
185	0xe5	-27
186	0x20	32
187	0x38	56
188	0x7e	126
189	0x34	52
190	0x2d	45
191	0x08	8
192	0x13	19
193	0x0a	10
194	0xec	-20
195	0xdf	-33
196	0x38	56
197	0x7f	127
198	0xd1	-47
199	0x12	18
200	0x08	8
201	0x38	56
202	0xd1	-47
203	0xf4	-12
204	0x8e	-114
205	0x0a	10
206	0xab	-85
207	0x20	32
208	0xdd	-35
209	0x51	81
210	0xd1	-47
211	0x16	22
212	0x34	52
213	0x28	40
214	0xec	-20
215	0xfc	-4
216	0xeb	-21
217	0xa2	-94
218	0x33	51
219	0xb0	-80
220	0xb3	-77
221	0xfa	-6
222	0x7f	127
223	0x19	25
224	0x1c	28
225	0x23	35
226	0xd6	-42
227	0x1d	29
228	0x01	1
229	0xbb	-69
230	0x12	18
231	0xb5	-75
232	0x3c	60
233	0xc0	-64
234	0x23	35
235	0x49	73
236	0x22	34
237	0x3a	58
238	0x2e	46
239	0xbb	-69
240	0x90	-112
241	0x03	3
242	0x30	48
243	0x22	34
244	0xfe	-2
245	0x52	82
246	0xce	-50
247	0x42	66
248	0x8f	-113
249	0x32	50
250	0x73	115
251	0xad	-83
252	0x4e	78
253	0x71	113
254	0xb4	-76
255	0x7f	127

tfl.pseudo_qconst9 i1 [40, 1, 1, 144]
0	0xcc	-52
1	0x25	37
2	0xf7	-9
3	0x06	6
4	0xa3	-93
5	0xcb	-53
6	0xe9	-23
7	0xe3	-29
8	0xb1	-79
9	0x27	39
10	0x1f	31
11	0x0f	15
12	0x1f	31
13	0xa7	-89
14	0xb3	-77
15	0x8f	-113
16	0xeb	-21
17	0xd0	-48
18	0x90	-112
19	0x9c	-100
20	0x2a	42
21	0x05	5
22	0x86	-122
23	0xfe	-2
24	0xd3	-45
25	0x01	1
26	0x36	54
27	0x98	-104
28	0x1f	31
29	0x5b	91
30	0xbf	-65
31	0xe2	-30
32	0x08	8
33	0x23	35
34	0xe2	-30
35	0x2d	45
36	0x15	21
37	0xb2	-78
38	0xb0	-80
39	0xc2	-62
40	0x2d	45
41	0x09	9
42	0xf7	-9
43	0x05	5
44	0xc0	-64
45	0x46	70
46	0x9a	-102
47	0x0d	13
48	0x1f	31
49	0x54	84
50	0xc4	-60
51	0x01	1
52	0xd7	-41
53	0x22	34
54	0x3a	58
55	0x48	72
56	0xf6	-10
57	0x3f	63
58	0xdc	-36
59	0xe5	-27
60	0x40	64
61	0x4a	74
62	0xf3	-13
63	0xaf	-81
64	0x81	-127
65	0xd4	-44
66	0x2d	45
67	0xd9	-39
68	0x15	21
69	0xfc	-4
70	0x8b	-117
71	0xce	-50
72	0x98	-104
73	0xdf	-33
74	0x86	-122
75	0xb6	-74
76	0xde	-34
77	0xa3	-93
78	0x10	16
79	0x2c	44
80	0xec	-20
81	0x42	66
82	0xb9	-71
83	0x4b	75
84	0xf4	-12
85	0x39	57
86	0x4e	78
87	0x9f	-97
88	0x25	37
89	0xe8	-24
90	0x51	81
91	0x98	-104
92	0xeb	-21
93	0xfd	-3
94	0xfe	-2
95	0x0d	13
96	0x0e	14
97	0x95	-107
98	0x3e	62
99	0x8f	-113
100	0x36	54
101	0xe5	-27
102	0xbf	-65
103	0x43	67
104	0x45	69
105	0x50	80
106	0x31	49
107	0x8f	-113
108	0x3b	59
109	0x06	6
110	0xd1	-47
111	0x3c	60
112	0x3c	60
113	0xc0	-64
114	0xf8	-8
115	0x40	64
116	0x24	36
117	0x3d	61
118	0x11	17
119	0x37	55
120	0x0a	10
121	0xd7	-41
122	0x97	-105
123	0x03	3
124	0x23	35
125	0x36	54
126	0x51	81
127	0xb6	-74
128	0xfe	-2
129	0xd6	-42
130	0x9e	-98
131	0x42	66
132	0xda	-38
133	0x3c	60
134	0x83	-125
135	0x4d	77
136	0x40	64
137	0xcc	-52
138	0x96	-106
139	0x3e	62
140	0x23	35
141	0xdc	-36
142	0x47	71
143	0xfe	-2
144	0xbf	-65
145	0xcb	-53
146	0x45	69
147	0x47	71
148	0xd5	-43
149	0x64	100
150	0xc3	-61
151	0xb4	-76
152	0x31	49
153	0x3e	62
154	0xbb	-69
155	0x25	37
156	0x89	-119
157	0x69	105
158	0x4c	76
159	0x3a	58
160	0xd0	-48
161	0x65	101
162	0xac	-84
163	0x2e	46
164	0xf8	-8
165	0x1f	31
166	0xbe	-66
167	0x96	-106
168	0x5b	91
169	0xd2	-46
170	0x95	-107
171	0x9d	-99
172	0x28	40
173	0xc1	-63
174	0x5b	91
175	0x0a	10
176	0x20	32
177	0x8f	-113
178	0xf0	-16
179	0xce	-50
180	0x51	81
181	0x2a	42
182	0x98	-104
183	0x5e	94
184	0xa9	-87
185	0x06	6
186	0xd1	-47
187	0x15	21
188	0x9f	-97
189	0x9a	-102
190	0xda	-38
191	0x93	-109
192	0x26	38
193	0x42	66
194	0x1a	26
195	0x42	66
196	0xc6	-58
197	0x60	96
198	0xcf	-49
199	0x69	105
200	0x2f	47
201	0x30	48
202	0x21	33
203	0x9c	-100
204	0x9b	-101
205	0x03	3
206	0x8b	-117
207	0xc6	-58
208	0x55	85
209	0x61	97
210	0xa0	-96
211	0xf0	-16
212	0xc8	-56
213	0x2e	46
214	0xf9	-7
215	0xdd	-35
216	0x88	-120
217	0x3d	61
218	0xc7	-57
219	0xb7	-73
220	0x48	72
221	0x44	68
222	0x65	101
223	0x9d	-99
224	0xb8	-72
225	0x18	24
226	0x69	105
227	0x92	-110
228	0xbd	-67
229	0x18	24
230	0x41	65
231	0x0f	15
232	0x98	-104
233	0xab	-85
234	0xe4	-28
235	0x5f	95
236	0x14	20
237	0xcb	-53
238	0x98	-104
239	0xbd	-67
240	0x9e	-98
241	0x29	41
242	0x4e	78
243	0x2f	47
244	0xc8	-56
245	0x06	6
246	0xf6	-10
247	0x9b	-101
248	0x0c	12
249	0x6c	108
250	0xb6	-74
251	0x03	3
252	0x0f	15
253	0xd6	-42
254	0x5a	90
255	0x1c	28

tfl.pseudo_qconst11 i1 [1, 5, 5, 144]
0	0xc2	-62
1	0x49	73
2	0x83	-125
3	0x03	3
4	0x33	51
5	0xb8	-72
6	0x0f	15
7	0x93	-109
8	0x16	22
9	0xe7	-25
10	0x3a	58
11	0xf1	-15
12	0xd8	-40
13	0xdf	-33
14	0xf3	-13
15	0xed	-19
16	0x7f	127
17	0x81	-127
18	0x8d	-115
19	0xf8	-8
20	0x83	-125
21	0x30	48
22	0x32	50
23	0x1e	30
24	0xdc	-36
25	0xf3	-13
26	0x7f	127
27	0x81	-127
28	0x2e	46
29	0x0e	14
30	0x26	38
31	0x16	22
32	0x22	34
33	0x7f	127
34	0x11	17
35	0x27	39
36	0x00	0
37	0x16	22
38	0xfb	-5
39	0x4e	78
40	0x02	2
41	0x00	0
42	0x22	34
43	0x81	-127
44	0xdf	-33
45	0xb2	-78
46	0x08	8
47	0xd2	-46
48	0x9d	-99
49	0x2c	44
50	0xe9	-23
51	0x27	39
52	0x35	53
53	0x53	83
54	0xd1	-47
55	0x81	-127
56	0x0e	14
57	0x61	97
58	0xfe	-2
59	0x0e	14
60	0xbd	-67
61	0xc1	-63
62	0x2e	46
63	0x3e	62
64	0x99	-103
65	0x09	9
66	0xea	-22
67	0xae	-82
68	0x50	80
69	0x0c	12
70	0x48	72
71	0x36	54
72	0x39	57
73	0x03	3
74	0x1a	26
75	0xcb	-53
76	0xc6	-58
77	0xf1	-15
78	0xef	-17
79	0xa2	-94
80	0x17	23
81	0xd0	-48
82	0x81	-127
83	0x10	16
84	0xef	-17
85	0xe5	-27
86	0x1d	29
87	0xac	-84
88	0x8b	-117
89	0x16	22
90	0x01	1
91	0x1b	27
92	0x33	51
93	0xe9	-23
94	0xe7	-25
95	0x2d	45
96	0x4e	78
97	0xd4	-44
98	0xae	-82
99	0x39	57
100	0x25	37
101	0xa6	-90
102	0x09	9
103	0x23	35
104	0x5c	92
105	0xee	-18
106	0x11	17
107	0xa2	-94
108	0x0f	15
109	0xc2	-62
110	0x4c	76
111	0x7f	127
112	0xb9	-71
113	0x08	8
114	0xfc	-4
115	0x2b	43
116	0x69	105
117	0xf0	-16
118	0x40	64
119	0x9d	-99
120	0x01	1
121	0x00	0
122	0x81	-127
123	0x5f	95
124	0x43	67
125	0xa9	-87
126	0x18	24
127	0x05	5
128	0x67	103
129	0x08	8
130	0xf8	-8
131	0x81	-127
132	0x38	56
133	0x21	33
134	0x5f	95
135	0x2c	44
136	0xcc	-52
137	0xb4	-76
138	0xff	-1
139	0x28	40
140	0x4a	74
141	0x01	1
142	0xc6	-58
143	0x9a	-102
144	0x24	36
145	0xfa	-6
146	0x81	-127
147	0xd2	-46
148	0xcc	-52
149	0x09	9
150	0xef	-17
151	0xf7	-9
152	0xdf	-33
153	0x1c	28
154	0x18	24
155	0xc6	-58
156	0xe2	-30
157	0x1c	28
158	0x3d	61
159	0xb5	-75
160	0x50	80
161	0x90	-112
162	0xd3	-45
163	0x2f	47
164	0x81	-127
165	0xe8	-24
166	0x26	38
167	0xe2	-30
168	0x1b	27
169	0xc1	-63
170	0x0b	11
171	0xa1	-95
172	0x0c	12
173	0xe8	-24
174	0xf0	-16
175	0xa1	-95
176	0x0d	13
177	0x1c	28
178	0x38	56
179	0xee	-18
180	0x19	25
181	0x44	68
182	0xd5	-43
183	0x2f	47
184	0xbf	-65
185	0x60	96
186	0x0f	15
187	0xc6	-58
188	0xfc	-4
189	0xfc	-4
190	0xd2	-46
191	0xc3	-61
192	0xa7	-89
193	0xcb	-53
194	0x81	-127
195	0x47	71
196	0x4f	79
197	0x0f	15
198	0x82	-126
199	0x93	-109
200	0xd8	-40
201	0x19	25
202	0xfe	-2
203	0x23	35
204	0xf9	-7
205	0xf4	-12
206	0x2e	46
207	0x0c	12
208	0x81	-127
209	0x0f	15
210	0xc0	-64
211	0xbc	-68
212	0x27	39
213	0xb3	-77
214	0x1b	27
215	0xd4	-44
216	0xfe	-2
217	0x04	4
218	0x15	21
219	0xc3	-61
220	0xe2	-30
221	0xab	-85
222	0x45	69
223	0x2f	47
224	0xdf	-33
225	0xf3	-13
226	0xe8	-24
227	0x0b	11
228	0xeb	-21
229	0x0f	15
230	0xf6	-10
231	0xfa	-6
232	0x8d	-115
233	0x2b	43
234	0xde	-34
235	0x33	51
236	0x11	17
237	0xb4	-76
238	0xd2	-46
239	0xec	-20
240	0xef	-17
241	0xd2	-46
242	0xef	-17
243	0x2b	43
244	0x25	37
245	0xd9	-39
246	0x2c	44
247	0xf9	-7
248	0xd4	-44
249	0xb3	-77
250	0x4f	79
251	0xe7	-25
252	0xfd	-3
253	0xd4	-44
254	0xf7	-9
255	0x3e	62

tfl.pseudo_qconst13 i1 [144, 1, 1, 24]
0	0x5b	91
1	0x4e	78
2	0x2f	47
3	0x48	72
4	0x7f	127
5	0x39	57
6	0x11	17
7	0xf0	-16
8	0x31	49
9	0xff	-1
10	0x6c	108
11	0x46	70
12	0x09	9
13	0xa5	-91
14	0xc1	-63
15	0x0d	13
16	0xcc	-52
17	0x66	102
18	0xea	-22
19	0xc6	-58
20	0xee	-18
21	0xbc	-68
22	0xed	-19
23	0xfb	-5
24	0x3e	62
25	0x2c	44
26	0xd2	-46
27	0x14	20
28	0x31	49
29	0xc0	-64
30	0xcd	-51
31	0x81	-127
32	0x43	67
33	0x29	41
34	0xe5	-27
35	0xa9	-87
36	0xb5	-75
37	0xb2	-78
38	0x9a	-102
39	0xcc	-52
40	0xe7	-25
41	0x69	105
42	0x3a	58
43	0xad	-83
44	0xb0	-80
45	0x87	-121
46	0x92	-110
47	0x60	96
48	0xdd	-35
49	0xba	-70
50	0x5d	93
51	0xf2	-14
52	0x06	6
53	0x26	38
54	0xbb	-69
55	0x9b	-101
56	0xd5	-43
57	0xcb	-53
58	0x43	67
59	0x8f	-113
60	0xd3	-45
61	0x03	3
62	0x4b	75
63	0xe2	-30
64	0xef	-17
65	0x48	72
66	0x21	33
67	0x36	54
68	0xbd	-67
69	0x7f	127
70	0xaf	-81
71	0x3e	62
72	0xfb	-5
73	0xff	-1
74	0x7f	127
75	0xf9	-7
76	0xbc	-68
77	0xa8	-88
78	0xa0	-96
79	0x50	80
80	0x99	-103
81	0x4f	79
82	0xb3	-77
83	0x38	56
84	0xb0	-80
85	0x32	50
86	0x8e	-114
87	0xe7	-25
88	0xbd	-67
89	0x0f	15
90	0xda	-38
91	0xed	-19
92	0x51	81
93	0x0d	13
94	0x5d	93
95	0x43	67
96	0x32	50
97	0xbe	-66
98	0x44	68
99	0x68	104
100	0xb9	-71
101	0x3b	59
102	0xca	-54
103	0xe8	-24
104	0x7f	127
105	0x3f	63
106	0xe4	-28
107	0xee	-18
108	0xb9	-71
109	0xec	-20
110	0x32	50
111	0xc4	-60
112	0x52	82
113	0x1d	29
114	0xfe	-2
115	0x45	69
116	0xd1	-47
117	0x2f	47
118	0xf7	-9
119	0xc5	-59
120	0xe6	-26
121	0xc2	-62
122	0x2b	43
123	0xee	-18
124	0x55	85
125	0xe6	-26
126	0xe7	-25
127	0xde	-34
128	0xd3	-45
129	0x41	65
130	0x3b	59
131	0x81	-127
132	0xf2	-14
133	0x24	36
134	0x45	69
135	0x25	37
136	0x2f	47
137	0xfc	-4
138	0xf1	-15
139	0xa9	-87
140	0xd7	-41
141	0xa5	-91
142	0x49	73
143	0x44	68
144	0x25	37
145	0x18	24
146	0x38	56
147	0x0b	11
148	0x84	-124
149	0xed	-19
150	0x94	-108
151	0x81	-127
152	0xb0	-80
153	0xe2	-30
154	0xda	-38
155	0xa8	-88
156	0x37	55
157	0x67	103
158	0x59	89
159	0x1c	28
160	0x22	34
161	0x53	83
162	0x1c	28
163	0xe0	-32
164	0xc7	-57
165	0xc7	-57
166	0xa0	-96
167	0xd3	-45
168	0xa3	-93
169	0xd7	-41
170	0xfc	-4
171	0xf9	-7
172	0xbe	-66
173	0x5b	91
174	0x48	72
175	0xa1	-95
176	0xd7	-41
177	0xd8	-40
178	0x0b	11
179	0xeb	-21
180	0xee	-18
181	0x45	69
182	0x09	9
183	0x81	-127
184	0xd6	-42
185	0x0d	13
186	0x51	81
187	0x20	32
188	0xdf	-33
189	0xc1	-63
190	0x23	35
191	0xed	-19
192	0xd7	-41
193	0x0f	15
194	0x65	101
195	0x81	-127
196	0xc5	-59
197	0x25	37
198	0xdf	-33
199	0xd1	-47
200	0xf5	-11
201	0xbe	-66
202	0x2e	46
203	0x1d	29
204	0x45	69
205	0xb4	-76
206	0xbe	-66
207	0x1e	30
208	0xa7	-89
209	0x02	2
210	0x89	-119
211	0x28	40
212	0x48	72
213	0xcc	-52
214	0xf0	-16
215	0xd6	-42
216	0x5d	93
217	0x5c	92
218	0xfe	-2
219	0xa0	-96
220	0x10	16
221	0xe9	-23
222	0x7f	127
223	0x4a	74
224	0x5a	90
225	0x1c	28
226	0xf4	-12
227	0xa9	-87
228	0x22	34
229	0xcb	-53
230	0x0e	14
231	0xa8	-88
232	0xe4	-28
233	0xe0	-32
234	0x04	4
235	0x08	8
236	0xc1	-63
237	0x66	102
238	0xcb	-53
239	0xe2	-30
240	0x28	40
241	0x06	6
242	0x0e	14
243	0x64	100
244	0x09	9
245	0x5f	95
246	0xe0	-32
247	0xd1	-47
248	0xc3	-61
249	0x60	96
250	0x2c	44
251	0x81	-127
252	0x69	105
253	0xa6	-90
254	0x5a	90
255	0x12	18

tfl.pseudo_qconst15 i1 [24, 1, 1, 144]
0	0x16	22
1	0x01	1
2	0x47	71
3	0x3b	59
4	0x41	65
5	0x0b	11
6	0x12	18
7	0x13	19
8	0xac	-84
9	0x08	8
10	0x50	80
11	0x38	56
12	0x12	18
13	0xb1	-79
14	0x37	55
15	0xc5	-59
16	0xc5	-59
17	0x40	64
18	0x44	68
19	0x3a	58
20	0x23	35
21	0x0a	10
22	0xd4	-44
23	0xe6	-26
24	0x42	66
25	0xef	-17
26	0x9a	-102
27	0x47	71
28	0x24	36
29	0x3e	62
30	0x20	32
31	0xcd	-51
32	0xc0	-64
33	0x2a	42
34	0x36	54
35	0x08	8
36	0x5d	93
37	0x5c	92
38	0xc6	-58
39	0xe9	-23
40	0xfd	-3
41	0x27	39
42	0x5f	95
43	0xe8	-24
44	0x5a	90
45	0x0f	15
46	0x08	8
47	0xff	-1
48	0xb6	-74
49	0xff	-1
50	0x08	8
51	0x33	51
52	0xe7	-25
53	0xae	-82
54	0x10	16
55	0x47	71
56	0xd8	-40
57	0x7e	126
58	0xe7	-25
59	0x1e	30
60	0xeb	-21
61	0x1c	28
62	0xb1	-79
63	0x41	65
64	0x26	38
65	0xbe	-66
66	0xc7	-57
67	0x2d	45
68	0xc0	-64
69	0x3c	60
70	0xfa	-6
71	0x0b	11
72	0xee	-18
73	0x08	8
74	0x01	1
75	0x66	102
76	0xf9	-7
77	0xee	-18
78	0xd4	-44
79	0xa6	-90
80	0xe8	-24
81	0x13	19
82	0x3d	61
83	0xc8	-56
84	0x4b	75
85	0xb7	-73
86	0xcd	-51
87	0xf2	-14
88	0x4d	77
89	0xd0	-48
90	0xf3	-13
91	0xf6	-10
92	0xdd	-35
93	0x09	9
94	0x50	80
95	0x3d	61
96	0xe0	-32
97	0x0c	12
98	0xf6	-10
99	0xdf	-33
100	0x2e	46
101	0x37	55
102	0xa9	-87
103	0xb8	-72
104	0xab	-85
105	0xb4	-76
106	0x48	72
107	0x36	54
108	0xe4	-28
109	0xfe	-2
110	0x22	34
111	0xcf	-49
112	0x1d	29
113	0x03	3
114	0xe6	-26
115	0x1c	28
116	0x2c	44
117	0x0e	14
118	0xec	-20
119	0xd1	-47
120	0xff	-1
121	0x94	-108
122	0x32	50
123	0xeb	-21
124	0x2d	45
125	0x13	19
126	0xed	-19
127	0x08	8
128	0x52	82
129	0x1c	28
130	0xfe	-2
131	0xb9	-71
132	0xfa	-6
133	0xf1	-15
134	0x31	49
135	0xfe	-2
136	0x7f	127
137	0x2b	43
138	0x0d	13
139	0x66	102
140	0x1a	26
141	0x10	16
142	0xca	-54
143	0x26	38
144	0xd7	-41
145	0xbf	-65
146	0x10	16
147	0x46	70
148	0xc0	-64
149	0xc3	-61
150	0xd2	-46
151	0x2d	45
152	0xd1	-47
153	0x04	4
154	0xea	-22
155	0xd8	-40
156	0x2a	42
157	0xf7	-9
158	0x0e	14
159	0xc5	-59
160	0x57	87
161	0xb4	-76
162	0x0c	12
163	0xbd	-67
164	0xe2	-30
165	0x11	17
166	0xa7	-89
167	0xde	-34
168	0xb5	-75
169	0x12	18
170	0x31	49
171	0x0e	14
172	0x03	3
173	0x11	17
174	0x2d	45
175	0xeb	-21
176	0xf9	-7
177	0xcb	-53
178	0xcd	-51
179	0xdb	-37
180	0x81	-127
181	0x9f	-97
182	0x43	67
183	0x32	50
184	0xef	-17
185	0x3f	63
186	0xc5	-59
187	0x34	52
188	0xb4	-76
189	0xfa	-6
190	0x40	64
191	0x5b	91
192	0xcd	-51
193	0xbc	-68
194	0xdf	-33
195	0xf7	-9
196	0xa3	-93
197	0x23	35
198	0x0b	11
199	0x0b	11
200	0x14	20
201	0xcc	-52
202	0x3b	59
203	0xa4	-92
204	0xc8	-56
205	0xaf	-81
206	0xb5	-75
207	0xea	-22
208	0x40	64
209	0x31	49
210	0x3a	58
211	0x27	39
212	0xd3	-45
213	0x0a	10
214	0xc6	-58
215	0xf6	-10
216	0x0b	11
217	0xf0	-16
218	0xcb	-53
219	0xd6	-42
220	0x39	57
221	0xfd	-3
222	0xd7	-41
223	0xc3	-61
224	0xff	-1
225	0xab	-85
226	0xbc	-68
227	0xcf	-49
228	0xb9	-71
229	0xf5	-11
230	0x46	70
231	0xec	-20
232	0xc1	-63
233	0xe1	-31
234	0xf9	-7
235	0x13	19
236	0xd6	-42
237	0x38	56
238	0xef	-17
239	0x4d	77
240	0x1a	26
241	0x08	8
242	0x12	18
243	0x2d	45
244	0xaf	-81
245	0x2f	47
246	0xed	-19
247	0xcf	-49
248	0xe2	-30
249	0x13	19
250	0x18	24
251	0x50	80
252	0xe1	-31
253	0xd6	-42
254	0x09	9
255	0x34	52

tfl.pseudo_qconst17 i1 [144, 1, 1, 40]
0	0x01	1
1	0xc4	-60
2	0xec	-20
3	0x14	20
4	0xef	-17
5	0x48	72
6	0xd2	-46
7	0xb9	-71
8	0xc3	-61
9	0xe6	-26
10	0xe2	-30
11	0xe6	-26
12	0x19	25
13	0xa5	-91
14	0x21	33
15	0x32	50
16	0xf6	-10
17	0xed	-19
18	0x09	9
19	0x27	39
20	0xca	-54
21	0x29	41
22	0x8a	-118
23	0xf2	-14
24	0x43	67
25	0x4c	76
26	0x2b	43
27	0x0e	14
28	0xea	-22
29	0xfb	-5
30	0xf1	-15
31	0xa1	-95
32	0x15	21
33	0x38	56
34	0x2e	46
35	0x32	50
36	0xcc	-52
37	0x7f	127
38	0xd8	-40
39	0xf8	-8
40	0xf3	-13
41	0xe7	-25
42	0x93	-109
43	0xb4	-76
44	0x09	9
45	0x22	34
46	0xea	-22
47	0xe1	-31
48	0x2d	45
49	0x3d	61
50	0xf9	-7
51	0x41	65
52	0x12	18
53	0x10	16
54	0x38	56
55	0x4a	74
56	0x20	32
57	0x21	33
58	0x81	-127
59	0x67	103
60	0x06	6
61	0xea	-22
62	0x3e	62
63	0x87	-121
64	0x20	32
65	0xff	-1
66	0x9d	-99
67	0x3c	60
68	0xdc	-36
69	0xe1	-31
70	0xd5	-43
71	0xc9	-55
72	0xf3	-13
73	0x12	18
74	0xc5	-59
75	0xf9	-7
76	0xa6	-90
77	0x7e	126
78	0x20	32
79	0x36	54
80	0x0d	13
81	0xb0	-80
82	0xec	-20
83	0xb8	-72
84	0xde	-34
85	0x4a	74
86	0x15	21
87	0xd0	-48
88	0xe2	-30
89	0x50	80
90	0x11	17
91	0xe1	-31
92	0x33	51
93	0xeb	-21
94	0xd3	-45
95	0x9e	-98
96	0x42	66
97	0x0d	13
98	0xae	-82
99	0x4d	77
100	0x12	18
101	0x2e	46
102	0xe5	-27
103	0xe9	-23
104	0xf1	-15
105	0xb0	-80
106	0xd7	-41
107	0x58	88
108	0x15	21
109	0x6e	110
110	0xb2	-78
111	0x50	80
112	0xb9	-71
113	0x09	9
114	0xc6	-58
115	0x19	25
116	0x81	-127
117	0x4d	77
118	0x2c	44
119	0x6a	106
120	0x57	87
121	0xe5	-27
122	0xe7	-25
123	0xb7	-73
124	0xb3	-77
125	0x0e	14
126	0xfe	-2
127	0x09	9
128	0xad	-83
129	0xe5	-27
130	0xab	-85
131	0xf7	-9
132	0x14	20
133	0xf4	-12
134	0x12	18
135	0x4c	76
136	0xd5	-43
137	0x2a	42
138	0xf1	-15
139	0xc3	-61
140	0x28	40
141	0xc1	-63
142	0x06	6
143	0xd2	-46
144	0x03	3
145	0x14	20
146	0x89	-119
147	0x25	37
148	0xdd	-35
149	0x79	121
150	0x2a	42
151	0x75	117
152	0x23	35
153	0x17	23
154	0xbc	-68
155	0x3f	63
156	0xcb	-53
157	0x7f	127
158	0xf4	-12
159	0x6b	107
160	0xd6	-42
161	0x41	65
162	0x17	23
163	0x94	-108
164	0xbf	-65
165	0xea	-22
166	0xd3	-45
167	0xbf	-65
168	0x81	-127
169	0xdb	-37
170	0xe8	-24
171	0xc9	-55
172	0xea	-22
173	0xd7	-41
174	0xe3	-29
175	0x97	-105
176	0xc5	-59
177	0x35	53
178	0x34	52
179	0x94	-108
180	0xe4	-28
181	0xd7	-41
182	0x96	-106
183	0xd7	-41
184	0xd6	-42
185	0xcf	-49
186	0x40	64
187	0x3f	63
188	0x00	0
189	0x96	-106
190	0x1b	27
191	0x9b	-101
192	0x26	38
193	0xd4	-44
194	0x16	22
195	0x0d	13
196	0xf9	-7
197	0x25	37
198	0x2b	43
199	0x33	51
200	0x26	38
201	0x9b	-101
202	0xbd	-67
203	0x51	81
204	0xfa	-6
205	0xad	-83
206	0x0b	11
207	0x38	56
208	0xf8	-8
209	0xec	-20
210	0xa3	-93
211	0xaa	-86
212	0x16	22
213	0x68	104
214	0x38	56
215	0x39	57
216	0x32	50
217	0x60	96
218	0xa9	-87
219	0x50	80
220	0x2e	46
221	0xf1	-15
222	0xdc	-36
223	0x46	70
224	0x57	87
225	0x5f	95
226	0xe8	-24
227	0x2d	45
228	0x03	3
229	0xe5	-27
230	0xf7	-9
231	0x7f	127
232	0xee	-18
233	0xde	-34
234	0x72	114
235	0xcf	-49
236	0xe5	-27
237	0x0c	12
238	0xd0	-48
239	0xd0	-48
240	0x1e	30
241	0x02	2
242	0x9f	-97
243	0xf6	-10
244	0xec	-20
245	0x5d	93
246	0x11	17
247	0x46	70
248	0xb2	-78
249	0xa4	-92
250	0xb0	-80
251	0x2f	47
252	0xb1	-79
253	0x44	68
254	0x2d	45
255	0xfa	-6

tfl.pseudo_qconst19 i1 [40, 1, 1, 144]
0	0xb6	-74
1	0xda	-38
2	0xd6	-42
3	0xa0	-96
4	0x5c	92
5	0xb2	-78
6	0x27	39
7	0xbe	-66
8	0xde	-34
9	0x34	52
10	0x0f	15
11	0x5a	90
12	0xe7	-25
13	0xe3	-29
14	0xd2	-46
15	0x1f	31
16	0x2e	46
17	0x02	2
18	0xa3	-93
19	0x4b	75
20	0x96	-106
21	0xc9	-55
22	0x1c	28
23	0xd9	-39
24	0x3b	59
25	0x38	56
26	0x93	-109
27	0x20	32
28	0xa4	-92
29	0x03	3
30	0xfb	-5
31	0x24	36
32	0xde	-34
33	0xfd	-3
34	0x47	71
35	0x25	37
36	0x19	25
37	0x90	-112
38	0xf1	-15
39	0xb1	-79
40	0x5b	91
41	0xa3	-93
42	0x05	5
43	0xea	-22
44	0x16	22
45	0xda	-38
46	0xf2	-14
47	0xd6	-42
48	0xb7	-73
49	0xf8	-8
50	0xfe	-2
51	0x45	69
52	0x30	48
53	0x0b	11
54	0x3d	61
55	0xec	-20
56	0x4e	78
57	0x2b	43
58	0xd9	-39
59	0x12	18
60	0x07	7
61	0xca	-54
62	0xec	-20
63	0x29	41
64	0x14	20
65	0xf9	-7
66	0xa4	-92
67	0xa0	-96
68	0xde	-34
69	0x0e	14
70	0xf6	-10
71	0xf8	-8
72	0xdb	-37
73	0xec	-20
74	0xdb	-37
75	0x0f	15
76	0x1f	31
77	0x50	80
78	0x1f	31
79	0x04	4
80	0x86	-122
81	0xf3	-13
82	0x0d	13
83	0xe3	-29
84	0xc8	-56
85	0x41	65
86	0x92	-110
87	0xcf	-49
88	0x69	105
89	0x12	18
90	0x91	-111
91	0x23	35
92	0x9c	-100
93	0x99	-103
94	0xca	-54
95	0xc7	-57
96	0xef	-17
97	0xcf	-49
98	0xba	-70
99	0x9f	-97
100	0x11	17
101	0x15	21
102	0xcd	-51
103	0xb8	-72
104	0x4c	76
105	0xaa	-86
106	0xb4	-76
107	0x30	48
108	0x39	57
109	0xbb	-69
110	0x0a	10
111	0xa8	-88
112	0x31	49
113	0xac	-84
114	0x00	0
115	0xd9	-39
116	0x29	41
117	0x02	2
118	0xbb	-69
119	0x38	56
120	0x82	-126
121	0xf6	-10
122	0xec	-20
123	0xc3	-61
124	0x59	89
125	0xab	-85
126	0xcd	-51
127	0xa7	-89
128	0xbd	-67
129	0xe7	-25
130	0xfa	-6
131	0xaa	-86
132	0xa5	-91
133	0xfd	-3
134	0x3d	61
135	0xe7	-25
136	0x25	37
137	0xdb	-37
138	0x39	57
139	0xad	-83
140	0xb9	-71
141	0x23	35
142	0x81	-127
143	0x55	85
144	0x54	84
145	0xf6	-10
146	0x03	3
147	0x71	113
148	0xf0	-16
149	0x18	24
150	0x99	-103
151	0x2a	42
152	0xeb	-21
153	0xc8	-56
154	0xf7	-9
155	0x94	-108
156	0xcb	-53
157	0x1e	30
158	0x5e	94
159	0xe3	-29
160	0x8a	-118
161	0x4c	76
162	0x2e	46
163	0xc3	-61
164	0x06	6
165	0x0c	12
166	0x86	-122
167	0x64	100
168	0x47	71
169	0x50	80
170	0x29	41
171	0xc9	-55
172	0x2a	42
173	0x29	41
174	0x1b	27
175	0x61	97
176	0x13	19
177	0x1c	28
178	0x42	66
179	0x07	7
180	0x05	5
181	0x9e	-98
182	0xae	-82
183	0xc5	-59
184	0xf6	-10
185	0x46	70
186	0xf9	-7
187	0x28	40
188	0xc3	-61
189	0x93	-109
190	0xfa	-6
191	0xcb	-53
192	0xf4	-12
193	0x9e	-98
194	0xf1	-15
195	0xbd	-67
196	0xed	-19
197	0xb5	-75
198	0x48	72
199	0x97	-105
200	0xe0	-32
201	0x07	7
202	0x1d	29
203	0x2d	45
204	0xd9	-39
205	0xa5	-91
206	0x3c	60
207	0x30	48
208	0x3b	59
209	0xd5	-43
210	0x92	-110
211	0xac	-84
212	0x08	8
213	0xd5	-43
214	0xaa	-86
215	0xb8	-72
216	0xd1	-47
217	0x0f	15
218	0xe6	-26
219	0xeb	-21
220	0x5e	94
221	0x99	-103
222	0x3c	60
223	0x53	83
224	0xc0	-64
225	0x1d	29
226	0xf7	-9
227	0xae	-82
228	0x86	-122
229	0x2a	42
230	0x43	67
231	0x15	21
232	0x3f	63
233	0x3a	58
234	0xda	-38
235	0xc9	-55
236	0x9f	-97
237	0xdd	-35
238	0xe4	-28
239	0x26	38
240	0x09	9
241	0x99	-103
242	0x15	21
243	0x45	69
244	0x9b	-101
245	0xfd	-3
246	0xa2	-94
247	0xf3	-13
248	0xb1	-79
249	0xff	-1
250	0x07	7
251	0xec	-20
252	0xda	-38
253	0xb4	-76
254	0x10	16
255	0xb6	-74

tfl.pseudo_qconst21 i1 [1, 5, 5, 144]
0	0xd1	-47
1	0xc2	-62
2	0xaf	-81
3	0x01	1
4	0x7f	127
5	0xe8	-24
6	0xd0	-48
7	0x2e	46
8	0x1f	31
9	0x8e	-114
10	0xcb	-53
11	0x41	65
12	0x20	32
13	0x59	89
14	0xd7	-41
15	0x29	41
16	0xc7	-57
17	0x1b	27
18	0x3f	63
19	0x4e	78
20	0x02	2
21	0xcf	-49
22	0xea	-22
23	0xda	-38
24	0xec	-20
25	0x14	20
26	0x25	37
27	0x10	16
28	0x31	49
29	0xbb	-69
30	0xf9	-7
31	0x81	-127
32	0x7f	127
33	0x1d	29
34	0x2f	47
35	0x06	6
36	0x05	5
37	0xd1	-47
38	0xf4	-12
39	0xba	-70
40	0x0c	12
41	0xbc	-68
42	0xd6	-42
43	0xf2	-14
44	0x9c	-100
45	0xbc	-68
46	0xa3	-93
47	0xe4	-28
48	0xdb	-37
49	0x2f	47
50	0x81	-127
51	0x1f	31
52	0x50	80
53	0xf4	-12
54	0xb3	-77
55	0xe2	-30
56	0x08	8
57	0xf2	-14
58	0xf8	-8
59	0x7f	127
60	0x7f	127
61	0x0c	12
62	0x33	51
63	0x1b	27
64	0xdb	-37
65	0xbf	-65
66	0x1f	31
67	0x2a	42
68	0xff	-1
69	0xde	-34
70	0x11	17
71	0x13	19
72	0x1a	26
73	0x7b	123
74	0x45	69
75	0x3b	59
76	0xfd	-3
77	0x2f	47
78	0x1f	31
79	0x08	8
80	0xac	-84
81	0x7f	127
82	0xee	-18
83	0xf2	-14
84	0xcf	-49
85	0xc8	-56
86	0x29	41
87	0x2e	46
88	0x1d	29
89	0x4a	74
90	0x07	7
91	0x20	32
92	0x97	-105
93	0xb2	-78
94	0xb2	-78
95	0xe9	-23
96	0xd2	-46
97	0xd4	-44
98	0x15	21
99	0x10	16
100	0x52	82
101	0x16	22
102	0x99	-103
103	0x1d	29
104	0xd8	-40
105	0xfe	-2
106	0xce	-50
107	0x35	53
108	0xce	-50
109	0xb6	-74
110	0x0f	15
111	0x65	101
112	0x11	17
113	0x1b	27
114	0xb7	-73
115	0xc6	-58
116	0x01	1
117	0xe6	-26
118	0x0c	12
119	0x24	36
120	0x97	-105
121	0x4b	75
122	0x2e	46
123	0xef	-17
124	0xd5	-43
125	0x81	-127
126	0xe1	-31
127	0x90	-112
128	0xf8	-8
129	0xf0	-16
130	0x56	86
131	0x07	7
132	0x2c	44
133	0x8f	-113
134	0xcd	-51
135	0x9e	-98
136	0xf8	-8
137	0x7f	127
138	0x83	-125
139	0xfc	-4
140	0x06	6
141	0xbb	-69
142	0xcf	-49
143	0x44	68
144	0x09	9
145	0xea	-22
146	0xaf	-81
147	0xba	-70
148	0x1e	30
149	0xdf	-33
150	0xe4	-28
151	0x1f	31
152	0x2c	44
153	0x09	9
154	0xb9	-71
155	0x0e	14
156	0x50	80
157	0x7f	127
158	0xfe	-2
159	0x2d	45
160	0x81	-127
161	0x2c	44
162	0x37	55
163	0xc1	-63
164	0xea	-22
165	0xda	-38
166	0xa5	-91
167	0xd2	-46
168	0xf9	-7
169	0x1f	31
170	0xfe	-2
171	0xfa	-6
172	0x19	25
173	0xbf	-65
174	0xdc	-36
175	0xa2	-94
176	0x4d	77
177	0xf6	-10
178	0xe6	-26
179	0x0d	13
180	0xe3	-29
181	0xaa	-86
182	0xfd	-3
183	0xb5	-75
184	0xf7	-9
185	0xd9	-39
186	0xc3	-61
187	0xbf	-65
188	0xc3	-61
189	0x9b	-101
190	0xed	-19
191	0xf8	-8
192	0xc0	-64
193	0x2d	45
194	0x8d	-115
195	0xd6	-42
196	0x44	68
197	0xe0	-32
198	0x81	-127
199	0x18	24
200	0xf4	-12
201	0xef	-17
202	0x39	57
203	0x39	57
204	0x2c	44
205	0x09	9
206	0x1c	28
207	0xf2	-14
208	0x24	36
209	0x81	-127
210	0x47	71
211	0x16	22
212	0xfd	-3
213	0x17	23
214	0xdc	-36
215	0xa3	-93
216	0xc2	-62
217	0x49	73
218	0x51	81
219	0x54	84
220	0xb1	-79
221	0xf5	-11
222	0x43	67
223	0xdf	-33
224	0x15	21
225	0x51	81
226	0xb8	-72
227	0x22	34
228	0xf0	-16
229	0x81	-127
230	0x25	37
231	0x71	113
232	0xf5	-11
233	0x19	25
234	0x05	5
235	0xfe	-2
236	0xf0	-16
237	0xf9	-7
238	0xd9	-39
239	0x14	20
240	0xef	-17
241	0xd2	-46
242	0xf5	-11
243	0xd5	-43
244	0x10	16
245	0x7f	127
246	0xd5	-43
247	0x7f	127
248	0x24	36
249	0xfa	-6
250	0x23	35
251	0x01	1
252	0x0f	15
253	0x02	2
254	0xd9	-39
255	0x4c	76

tfl.pseudo_qconst23 i1 [144, 1, 1, 24]
0	0xcb	-53
1	0x0c	12
2	0x03	3
3	0x3f	63
4	0x33	51
5	0xb7	-73
6	0x2c	44
7	0xc3	-61
8	0xba	-70
9	0xbf	-65
10	0x64	100
11	0xc4	-60
12	0x0f	15
13	0x21	33
14	0x37	55
15	0x0f	15
16	0xe5	-27
17	0xe9	-23
18	0x08	8
19	0xe6	-26
20	0x7f	127
21	0x02	2
22	0xce	-50
23	0xec	-20
24	0xbf	-65
25	0x41	65
26	0xb6	-74
27	0xe7	-25
28	0x15	21
29	0x0b	11
30	0x97	-105
31	0x9f	-97
32	0xd1	-47
33	0x34	52
34	0xe7	-25
35	0xde	-34
36	0x68	104
37	0x42	66
38	0x7f	127
39	0xb3	-77
40	0x1a	26
41	0x64	100
42	0xbe	-66
43	0xc1	-63
44	0x19	25
45	0x26	38
46	0x41	65
47	0xb0	-80
48	0xc2	-62
49	0xcd	-51
50	0x17	23
51	0x17	23
52	0x75	117
53	0x81	-127
54	0x55	85
55	0xcf	-49
56	0xfb	-5
57	0x74	116
58	0x07	7
59	0xf0	-16
60	0x3b	59
61	0xc4	-60
62	0x21	33
63	0xf2	-14
64	0xab	-85
65	0xe6	-26
66	0xba	-70
67	0x55	85
68	0xae	-82
69	0x98	-104
70	0x9f	-97
71	0x33	51
72	0xfa	-6
73	0x21	33
74	0x4b	75
75	0xeb	-21
76	0x8f	-113
77	0x92	-110
78	0x15	21
79	0x3f	63
80	0x0f	15
81	0xf5	-11
82	0x05	5
83	0xf5	-11
84	0x34	52
85	0xdd	-35
86	0x1b	27
87	0x31	49
88	0xf4	-12
89	0x81	-127
90	0xc4	-60
91	0xbb	-69
92	0x25	37
93	0x43	67
94	0xc9	-55
95	0x03	3
96	0x36	54
97	0x53	83
98	0xc6	-58
99	0xf8	-8
100	0x38	56
101	0xb0	-80
102	0xe5	-27
103	0x02	2
104	0x19	25
105	0xb2	-78
106	0x0b	11
107	0x25	37
108	0xcb	-53
109	0x8a	-118
110	0xc9	-55
111	0xd4	-44
112	0x06	6
113	0x73	115
114	0x4c	76
115	0x4e	78
116	0x7f	127
117	0x35	53
118	0xb2	-78
119	0xf8	-8
120	0xbf	-65
121	0xd3	-45
122	0xd7	-41
123	0x57	87
124	0x5f	95
125	0x1f	31
126	0xe0	-32
127	0x9f	-97
128	0x4a	74
129	0xf5	-11
130	0xcc	-52
131	0xfb	-5
132	0xe9	-23
133	0x34	52
134	0xb3	-77
135	0x33	51
136	0x91	-111
137	0xdc	-36
138	0xfd	-3
139	0xb5	-75
140	0x02	2
141	0x81	-127
142	0xc4	-60
143	0x09	9
144	0x49	73
145	0x39	57
146	0x58	88
147	0x28	40
148	0xdc	-36
149	0x4b	75
150	0xf7	-9
151	0x28	40
152	0x81	-127
153	0xf1	-15
154	0xfd	-3
155	0x86	-122
156	0xdd	-35
157	0x92	-110
158	0x35	53
159	0x4c	76
160	0xb0	-80
161	0xe3	-29
162	0xf5	-11
163	0x28	40
164	0x1a	26
165	0xd7	-41
166	0x40	64
167	0xf1	-15
168	0xe5	-27
169	0xf7	-9
170	0x51	81
171	0x4d	77
172	0x2b	43
173	0x06	6
174	0xeb	-21
175	0x21	33
176	0xfc	-4
177	0x1a	26
178	0xe5	-27
179	0xc9	-55
180	0x38	56
181	0xb6	-74
182	0xb0	-80
183	0xfb	-5
184	0x40	64
185	0x07	7
186	0x05	5
187	0x18	24
188	0x32	50
189	0x04	4
190	0x2b	43
191	0x7f	127
192	0x10	16
193	0xbf	-65
194	0xb2	-78
195	0x06	6
196	0xfa	-6
197	0xe2	-30
198	0xdd	-35
199	0xd0	-48
200	0x93	-109
201	0xc9	-55
202	0x1a	26
203	0x5e	94
204	0xe4	-28
205	0x1e	30
206	0x45	69
207	0x7f	127
208	0x10	16
209	0x3f	63
210	0xfe	-2
211	0xf5	-11
212	0x11	17
213	0x04	4
214	0x01	1
215	0xf7	-9
216	0x6b	107
217	0x81	-127
218	0x56	86
219	0xb4	-76
220	0x4a	74
221	0x3f	63
222	0xf4	-12
223	0x89	-119
224	0x36	54
225	0xa7	-89
226	0xd3	-45
227	0xd2	-46
228	0xae	-82
229	0x18	24
230	0x2c	44
231	0x96	-106
232	0xab	-85
233	0xc8	-56
234	0x31	49
235	0x37	55
236	0x6a	106
237	0x0f	15
238	0x5c	92
239	0x3d	61
240	0x23	35
241	0xe2	-30
242	0x3b	59
243	0xc4	-60
244	0x20	32
245	0x81	-127
246	0xbd	-67
247	0xe4	-28
248	0x14	20
249	0xea	-22
250	0x23	35
251	0xda	-38
252	0xfb	-5
253	0x5f	95
254	0x05	5
255	0xfa	-6

tfl.pseudo_qconst25 i1 [24, 1, 1, 96]
0	0x63	99
1	0x1a	26
2	0xc6	-58
3	0xe8	-24
4	0x23	35
5	0xf3	-13
6	0x66	102
7	0x5f	95
8	0x5c	92
9	0xff	-1
10	0x27	39
11	0x03	3
12	0x03	3
13	0xc5	-59
14	0x9b	-101
15	0xba	-70
16	0xb2	-78
17	0x70	112
18	0xe9	-23
19	0x29	41
20	0xb4	-76
21	0x0c	12
22	0x57	87
23	0xff	-1
24	0x30	48
25	0x58	88
26	0x57	87
27	0x26	38
28	0xf8	-8
29	0x6c	108
30	0xc4	-60
31	0x2d	45
32	0xd7	-41
33	0x00	0
34	0xc8	-56
35	0xde	-34
36	0x3b	59
37	0x10	16
38	0xb4	-76
39	0x3f	63
40	0xf1	-15
41	0xc5	-59
42	0xf6	-10
43	0xb7	-73
44	0x21	33
45	0x33	51
46	0x13	19
47	0x58	88
48	0xd3	-45
49	0x22	34
50	0xf1	-15
51	0x46	70
52	0xf0	-16
53	0x35	53
54	0x41	65
55	0x17	23
56	0x53	83
57	0xf3	-13
58	0x43	67
59	0x03	3
60	0x5e	94
61	0x67	103
62	0x30	48
63	0x30	48
64	0x3f	63
65	0x15	21
66	0x5a	90
67	0x2c	44
68	0xf7	-9
69	0x29	41
70	0x22	34
71	0x14	20
72	0xb2	-78
73	0x81	-127
74	0xc6	-58
75	0xbf	-65
76	0x22	34
77	0xf9	-7
78	0x12	18
79	0x24	36
80	0xd3	-45
81	0xcd	-51
82	0x42	66
83	0x34	52
84	0xe1	-31
85	0x49	73
86	0xca	-54
87	0xf1	-15
88	0xfe	-2
89	0xb6	-74
90	0x3b	59
91	0x1e	30
92	0xfa	-6
93	0xa3	-93
94	0x03	3
95	0xeb	-21
96	0xc0	-64
97	0x0c	12
98	0x29	41
99	0x0a	10
100	0xc0	-64
101	0x0b	11
102	0x9c	-100
103	0x48	72
104	0xad	-83
105	0xc2	-62
106	0xc3	-61
107	0xf9	-7
108	0xff	-1
109	0xcb	-53
110	0x68	104
111	0x02	2
112	0xc4	-60
113	0x55	85
114	0xe3	-29
115	0xe3	-29
116	0x31	49
117	0x1a	26
118	0x39	57
119	0x64	100
120	0x22	34
121	0xd4	-44
122	0xe8	-24
123	0xa4	-92
124	0xe6	-26
125	0xa5	-91
126	0xff	-1
127	0x37	55
128	0x2f	47
129	0x49	73
130	0xd7	-41
131	0x16	22
132	0x34	52
133	0x41	65
134	0x1c	28
135	0xe6	-26
136	0x03	3
137	0x31	49
138	0x17	23
139	0xe3	-29
140	0xf9	-7
141	0xaf	-81
142	0x33	51
143	0xf3	-13
144	0x0b	11
145	0x2a	42
146	0xf6	-10
147	0x17	23
148	0xb8	-72
149	0xae	-82
150	0xfd	-3
151	0x5c	92
152	0xef	-17
153	0xb2	-78
154	0x0b	11
155	0xfb	-5
156	0x1e	30
157	0x0b	11
158	0x34	52
159	0xf8	-8
160	0xde	-34
161	0xfc	-4
162	0x27	39
163	0xbc	-68
164	0x02	2
165	0xf7	-9
166	0x02	2
167	0xd7	-41
168	0x3a	58
169	0xb7	-73
170	0xd9	-39
171	0x58	88
172	0x81	-127
173	0x3e	62
174	0x2f	47
175	0xdb	-37
176	0x30	48
177	0xa8	-88
178	0x22	34
179	0x46	70
180	0xe8	-24
181	0x17	23
182	0xc3	-61
183	0xb7	-73
184	0x5c	92
185	0xb9	-71
186	0x37	55
187	0xc5	-59
188	0xd3	-45
189	0x35	53
190	0xcf	-49
191	0xe7	-25
192	0x4c	76
193	0x03	3
194	0x0b	11
195	0x14	20
196	0x38	56
197	0xe3	-29
198	0xde	-34
199	0x1a	26
200	0xcb	-53
201	0xf1	-15
202	0x23	35
203	0x33	51
204	0x4d	77
205	0x81	-127
206	0xd0	-48
207	0x0b	11
208	0xf1	-15
209	0x36	54
210	0x5b	91
211	0x17	23
212	0xa9	-87
213	0x6c	108
214	0xf8	-8
215	0x34	52
216	0xea	-22
217	0x0d	13
218	0x05	5
219	0x16	22
220	0xdf	-33
221	0xef	-17
222	0x28	40
223	0x4b	75
224	0xff	-1
225	0xf2	-14
226	0xae	-82
227	0x1d	29
228	0x0a	10
229	0x2e	46
230	0x36	54
231	0x07	7
232	0xbf	-65
233	0xd9	-39
234	0xeb	-21
235	0xcd	-51
236	0xd4	-44
237	0xe9	-23
238	0xf5	-11
239	0xf0	-16
240	0xb7	-73
241	0x4c	76
242	0x13	19
243	0x53	83
244	0xcf	-49
245	0xe0	-32
246	0x2c	44
247	0x4a	74
248	0x65	101
249	0xd1	-47
250	0xe6	-26
251	0x8e	-114
252	0x4e	78
253	0x20	32
254	0x4b	75
255	0x40	64

tfl.pseudo_qconst27 i1 [96, 1, 1, 24]
0	0x16	22
1	0x13	19
2	0x5a	90
3	0xf8	-8
4	0x7f	127
5	0xe8	-24
6	0xd5	-43
7	0x05	5
8	0x23	35
9	0x3f	63
10	0xdb	-37
11	0x1b	27
12	0x67	103
13	0xe0	-32
14	0x3f	63
15	0x1b	27
16	0xdc	-36
17	0xc2	-62
18	0xfe	-2
19	0x46	70
20	0x50	80
21	0xfb	-5
22	0xcb	-53
23	0x29	41
24	0xb0	-80
25	0x42	66
26	0x3c	60
27	0x1f	31
28	0x57	87
29	0x51	81
30	0x18	24
31	0x07	7
32	0x2f	47
33	0x7f	127
34	0x20	32
35	0x35	53
36	0x32	50
37	0x4d	77
38	0x7f	127
39	0xa4	-92
40	0x05	5
41	0x59	89
42	0x20	32
43	0x17	23
44	0x6d	109
45	0xa9	-87
46	0xe2	-30
47	0xdb	-37
48	0x24	36
49	0xa3	-93
50	0x81	-127
51	0x05	5
52	0x25	37
53	0xd5	-43
54	0x29	41
55	0xeb	-21
56	0x97	-105
57	0x9b	-101
58	0x59	89
59	0xfb	-5
60	0x92	-110
61	0x49	73
62	0xe6	-26
63	0x58	88
64	0x2a	42
65	0x0f	15
66	0xf2	-14
67	0x87	-121
68	0xf0	-16
69	0xa8	-88
70	0xb6	-74
71	0x21	33
72	0xd9	-39
73	0x81	-127
74	0x0a	10
75	0x3c	60
76	0xe4	-28
77	0x65	101
78	0xc2	-62
79	0x0d	13
80	0xaf	-81
81	0x29	41
82	0xdb	-37
83	0x37	55
84	0xef	-17
85	0xbb	-69
86	0xdd	-35
87	0xde	-34
88	0xba	-70
89	0xc4	-60
90	0x90	-112
91	0x19	25
92	0x47	71
93	0xec	-20
94	0xb7	-73
95	0x1a	26
96	0x5f	95
97	0xec	-20
98	0x1b	27
99	0xf4	-12
100	0xc9	-55
101	0xbc	-68
102	0x12	18
103	0x9f	-97
104	0x81	-127
105	0xa0	-96
106	0x88	-120
107	0x66	102
108	0x6b	107
109	0x0b	11
110	0x43	67
111	0x4c	76
112	0xef	-17
113	0x57	87
114	0xc0	-64
115	0x00	0
116	0x5d	93
117	0x4e	78
118	0x27	39
119	0xe6	-26
120	0xb4	-76
121	0xb0	-80
122	0xb9	-71
123	0x29	41
124	0xd1	-47
125	0xef	-17
126	0xa3	-93
127	0x1f	31
128	0xf5	-11
129	0x14	20
130	0xe4	-28
131	0x2c	44
132	0xe3	-29
133	0x81	-127
134	0xb9	-71
135	0xd0	-48
136	0xee	-18
137	0x0f	15
138	0xb7	-73
139	0xe6	-26
140	0x43	67
141	0xe4	-28
142	0x3b	59
143	0xcb	-53
144	0xf8	-8
145	0x66	102
146	0xb3	-77
147	0x13	19
148	0xd6	-42
149	0xd6	-42
150	0x32	50
151	0xe8	-24
152	0x52	82
153	0xfc	-4
154	0x0c	12
155	0x28	40
156	0xdd	-35
157	0x0f	15
158	0x81	-127
159	0xee	-18
160	0x4a	74
161	0x43	67
162	0xec	-20
163	0x33	51
164	0xeb	-21
165	0xef	-17
166	0xce	-50
167	0xe2	-30
168	0xb2	-78
169	0xbc	-68
170	0xe6	-26
171	0x59	89
172	0x16	22
173	0x87	-121
174	0x21	33
175	0x1f	31
176	0xc3	-61
177	0x04	4
178	0x17	23
179	0x81	-127
180	0xec	-20
181	0xdf	-33
182	0x2a	42
183	0xe6	-26
184	0xa9	-87
185	0xed	-19
186	0xef	-17
187	0x2f	47
188	0xa2	-94
189	0xe1	-31
190	0x3a	58
191	0x6a	106
192	0x65	101
193	0xfa	-6
194	0x06	6
195	0xab	-85
196	0xc8	-56
197	0x8f	-113
198	0x2c	44
199	0x20	32
200	0xf8	-8
201	0xdc	-36
202	0x20	32
203	0x3e	62
204	0xe9	-23
205	0xb5	-75
206	0x99	-103
207	0x28	40
208	0x2b	43
209	0x27	39
210	0x46	70
211	0x19	25
212	0xc6	-58
213	0xc8	-56
214	0x81	-127
215	0xf1	-15
216	0xbb	-69
217	0x83	-125
218	0xd6	-42
219	0x08	8
220	0xaa	-86
221	0xca	-54
222	0xf3	-13
223	0x0f	15
224	0xd5	-43
225	0x14	20
226	0xd2	-46
227	0xe2	-30
228	0x9f	-97
229	0xa9	-87
230	0x08	8
231	0x25	37
232	0x43	67
233	0xbf	-65
234	0xc5	-59
235	0xb3	-77
236	0xad	-83
237	0x0e	14
238	0x81	-127
239	0x32	50
240	0xee	-18
241	0xa6	-90
242	0x66	102
243	0x20	32
244	0xf8	-8
245	0x38	56
246	0xd4	-44
247	0x01	1
248	0xb5	-75
249	0x29	41
250	0xcc	-52
251	0xb7	-73
252	0x5d	93
253	0x04	4
254	0xf6	-10
255	0x0b	11

tfl.pseudo_qconst29 i1 [24, 1, 1, 96]
0	0xa5	-91
1	0xe0	-32
2	0x43	67
3	0x09	9
4	0xf4	-12
5	0x1d	29
6	0xdc	-36
7	0x39	57
8	0x94	-108
9	0xa7	-89
10	0x15	21
11	0x10	16
12	0x29	41
13	0x0f	15
14	0x49	73
15	0xdb	-37
16	0xdb	-37
17	0xf7	-9
18	0x2f	47
19	0x64	100
20	0x01	1
21	0x3c	60
22	0x0c	12
23	0xf2	-14
24	0xe5	-27
25	0xda	-38
26	0xad	-83
27	0x0f	15
28	0x55	85
29	0x17	23
30	0xfe	-2
31	0xc8	-56
32	0x03	3
33	0xef	-17
34	0x5d	93
35	0xd3	-45
36	0x48	72
37	0x48	72
38	0xf8	-8
39	0xef	-17
40	0x2b	43
41	0xb5	-75
42	0xbd	-67
43	0x5c	92
44	0x1e	30
45	0xf2	-14
46	0x16	22
47	0xb7	-73
48	0x54	84
49	0x59	89
50	0x0b	11
51	0x41	65
52	0xf2	-14
53	0x3f	63
54	0xe1	-31
55	0xe0	-32
56	0xc5	-59
57	0xc3	-61
58	0xa6	-90
59	0x54	84
60	0xa0	-96
61	0x9d	-99
62	0x20	32
63	0x37	55
64	0x00	0
65	0x16	22
66	0x61	97
67	0x52	82
68	0xd8	-40
69	0x26	38
70	0xac	-84
71	0x81	-127
72	0x8a	-118
73	0xca	-54
74	0x22	34
75	0x21	33
76	0xcf	-49
77	0xce	-50
78	0xc2	-62
79	0x2b	43
80	0xae	-82
81	0xea	-22
82	0xc3	-61
83	0x4c	76
84	0x3b	59
85	0xe1	-31
86	0x85	-123
87	0xaa	-86
88	0xc5	-59
89	0xd1	-47
90	0x9c	-100
91	0xd6	-42
92	0xfb	-5
93	0x05	5
94	0xd5	-43
95	0xbb	-69
96	0xc2	-62
97	0x06	6
98	0x1a	26
99	0x4c	76
100	0x01	1
101	0x33	51
102	0x83	-125
103	0x45	69
104	0xf2	-14
105	0x39	57
106	0xdf	-33
107	0xe6	-26
108	0x05	5
109	0x08	8
110	0xd5	-43
111	0x62	98
112	0x57	87
113	0x4e	78
114	0xfb	-5
115	0xe8	-24
116	0xab	-85
117	0xab	-85
118	0x4e	78
119	0xd4	-44
120	0x4a	74
121	0x34	52
122	0x57	87
123	0xe0	-32
124	0xbf	-65
125	0x33	51
126	0x19	25
127	0x09	9
128	0x58	88
129	0x69	105
130	0x03	3
131	0xd4	-44
132	0x43	67
133	0xc3	-61
134	0xc9	-55
135	0x50	80
136	0xbc	-68
137	0x1f	31
138	0x5c	92
139	0x60	96
140	0xed	-19
141	0xb8	-72
142	0x4a	74
143	0xd4	-44
144	0xac	-84
145	0xdc	-36
146	0x0e	14
147	0xd0	-48
148	0x4e	78
149	0x38	56
150	0xc7	-57
151	0x06	6
152	0x35	53
153	0x42	66
154	0xfa	-6
155	0xad	-83
156	0x10	16
157	0x5a	90
158	0xd6	-42
159	0xc4	-60
160	0xc4	-60
161	0x67	103
162	0x53	83
163	0xef	-17
164	0xf7	-9
165	0x24	36
166	0xde	-34
167	0x11	17
168	0x78	120
169	0x68	104
170	0x5e	94
171	0xe6	-26
172	0x10	16
173	0x0f	15
174	0x48	72
175	0x54	84
176	0x7f	127
177	0x2e	46
178	0xc7	-57
179	0x48	72
180	0x2a	42
181	0xe0	-32
182	0x13	19
183	0xc9	-55
184	0xdd	-35
185	0x5a	90
186	0x19	25
187	0x26	38
188	0x44	68
189	0x75	117
190	0x9a	-102
191	0x65	101
192	0x6a	106
193	0x34	52
194	0xf2	-14
195	0x24	36
196	0x2e	46
197	0x3d	61
198	0xf4	-12
199	0x23	35
200	0x1d	29
201	0xd0	-48
202	0x33	51
203	0x7c	124
204	0x2b	43
205	0xb5	-75
206	0xc4	-60
207	0x49	73
208	0x4a	74
209	0x1e	30
210	0x38	56
211	0xd3	-45
212	0xd4	-44
213	0xce	-50
214	0xe3	-29
215	0xaf	-81
216	0xd7	-41
217	0x55	85
218	0xf6	-10
219	0xd9	-39
220	0xee	-18
221	0x23	35
222	0xb4	-76
223	0xb2	-78
224	0xbc	-68
225	0xf7	-9
226	0xef	-17
227	0x05	5
228	0x38	56
229	0xf1	-15
230	0x31	49
231	0xe5	-27
232	0x08	8
233	0xa8	-88
234	0xd9	-39
235	0x38	56
236	0xee	-18
237	0xed	-19
238	0x0f	15
239	0x23	35
240	0x1c	28
241	0xd6	-42
242	0xef	-17
243	0xd6	-42
244	0x3c	60
245	0x09	9
246	0xf6	-10
247	0x2d	45
248	0xe4	-28
249	0x7f	127
250	0x01	1
251	0x1e	30
252	0xc3	-61
253	0x18	24
254	0xe3	-29
255	0x35	53

tfl.pseudo_qconst31 i1 [1, 5, 5, 96]
0	0x81	-127
1	0xa9	-87
2	0x81	-127
3	0x0a	10
4	0xe9	-23
5	0xde	-34
6	0x12	18
7	0x25	37
8	0x96	-106
9	0x87	-121
10	0x93	-109
11	0xa9	-87
12	0x15	21
13	0x48	72
14	0xca	-54
15	0x98	-104
16	0xad	-83
17	0x38	56
18	0x8c	-116
19	0xb0	-80
20	0x10	16
21	0x2c	44
22	0x0d	13
23	0x3a	58
24	0xe5	-27
25	0x4d	77
26	0x05	5
27	0xd5	-43
28	0x35	53
29	0x4d	77
30	0xf2	-14
31	0x15	21
32	0xfb	-5
33	0x0e	14
34	0xce	-50
35	0x12	18
36	0x62	98
37	0xec	-20
38	0x42	66
39	0xdd	-35
40	0x1b	27
41	0x13	19
42	0x12	18
43	0xc0	-64
44	0xcb	-53
45	0xf0	-16
46	0xe4	-28
47	0x03	3
48	0xb3	-77
49	0xd9	-39
50	0xbc	-68
51	0x4d	77
52	0x2e	46
53	0x1a	26
54	0x39	57
55	0xfb	-5
56	0x32	50
57	0x28	40
58	0x1d	29
59	0xfe	-2
60	0x1a	26
61	0x14	20
62	0x7f	127
63	0xde	-34
64	0x38	56
65	0x03	3
66	0x81	-127
67	0x01	1
68	0x18	24
69	0xc2	-62
70	0xd0	-48
71	0x03	3
72	0x3e	62
73	0x15	21
74	0xdd	-35
75	0xd1	-47
76	0xc0	-64
77	0xc4	-60
78	0x81	-127
79	0xa7	-89
80	0x37	55
81	0xf2	-14
82	0xc5	-59
83	0xdc	-36
84	0x00	0
85	0xf7	-9
86	0xce	-50
87	0x9d	-99
88	0x49	73
89	0x14	20
90	0xf7	-9
91	0xee	-18
92	0x28	40
93	0x1c	28
94	0x44	68
95	0x0d	13
96	0xa5	-91
97	0xab	-85
98	0xbd	-67
99	0xe3	-29
100	0xef	-17
101	0xb9	-71
102	0x5d	93
103	0xf8	-8
104	0xa2	-94
105	0xbe	-66
106	0xa5	-91
107	0xbb	-69
108	0x1e	30
109	0x19	25
110	0xd1	-47
111	0xbe	-66
112	0xa4	-92
113	0x93	-109
114	0x81	-127
115	0xe2	-30
116	0xe4	-28
117	0x22	34
118	0x0f	15
119	0x7f	127
120	0xc9	-55
121	0x2e	46
122	0xfc	-4
123	0x02	2
124	0xed	-19
125	0x29	41
126	0xf7	-9
127	0xaa	-86
128	0xd8	-40
129	0x15	21
130	0xfb	-5
131	0x8b	-117
132	0x24	36
133	0x13	19
134	0x13	19
135	0xb0	-80
136	0xd8	-40
137	0x06	6
138	0x2c	44
139	0xe2	-30
140	0xd6	-42
141	0xf1	-15
142	0xd1	-47
143	0x48	72
144	0xb7	-73
145	0xf2	-14
146	0xe2	-30
147	0x36	54
148	0x05	5
149	0x4b	75
150	0x44	68
151	0x0a	10
152	0xe8	-24
153	0x3d	61
154	0x62	98
155	0xf6	-10
156	0xfd	-3
157	0x4b	75
158	0x41	65
159	0x00	0
160	0x40	64
161	0xb5	-75
162	0xd5	-43
163	0xf7	-9
164	0xad	-83
165	0x96	-106
166	0xe1	-31
167	0xed	-19
168	0x43	67
169	0x38	56
170	0xf1	-15
171	0xca	-54
172	0xf5	-11
173	0x1d	29
174	0x97	-105
175	0xc6	-58
176	0xfb	-5
177	0x2f	47
178	0x95	-107
179	0xe5	-27
180	0x31	49
181	0xf1	-15
182	0x86	-122
183	0x84	-124
184	0xf2	-14
185	0xd8	-40
186	0xb5	-75
187	0xb9	-71
188	0x7f	127
189	0xe0	-32
190	0x0d	13
191	0x09	9
192	0xb1	-79
193	0x81	-127
194	0x4a	74
195	0x27	39
196	0x1f	31
197	0xac	-84
198	0x7c	124
199	0x51	81
200	0x81	-127
201	0xde	-34
202	0xd2	-46
203	0x9d	-99
204	0x60	96
205	0x50	80
206	0x81	-127
207	0xec	-20
208	0xe5	-27
209	0xc9	-55
210	0xbb	-69
211	0x1f	31
212	0xcd	-51
213	0x0d	13
214	0x09	9
215	0x3d	61
216	0xea	-22
217	0x7f	127
218	0x4c	76
219	0xa3	-93
220	0xb3	-77
221	0x1d	29
222	0xf9	-7
223	0x81	-127
224	0xf2	-14
225	0xa7	-89
226	0x38	56
227	0xe3	-29
228	0x59	89
229	0x6f	111
230	0x04	4
231	0x30	48
232	0xab	-85
233	0x02	2
234	0x41	65
235	0x7f	127
236	0x04	4
237	0x23	35
238	0x98	-104
239	0x12	18
240	0xab	-85
241	0xfd	-3
242	0x46	70
243	0xea	-22
244	0x09	9
245	0xa1	-95
246	0x05	5
247	0xe9	-23
248	0x34	52
249	0xeb	-21
250	0xd6	-42
251	0xaa	-86
252	0xed	-19
253	0x2c	44
254	0x35	53
255	0xd6	-42
