models/student_model_quant.tflite (tflite, 194176 bytes, 53 tensors)

tfl.pseudo_qconst1 i1 [2, 144]
-105 -95 -63 97 43 -54 33 -48
-20 -107 -8 83 -74 -29 -49 25
-84 63 -91 -75 22 45 -51 -65
-50 66 -44 18 -10 14 18 -73
15 21 9 -101 -62 -94 -30 81
-55 -27 -104 54 48 -95 -33 -102
-13 -111 -40 94 89 -23 127 -4
-99 69 -90 90 -60 -86 -29 84
78 -13 10 -105 6 38 -89 36
-74 -64 42 70 79 -23 60 48
50 110 -84 16 -50 -2 -23 79
-75 51 -8 88 38 -46 -77 -60
18 -5 -106 -79 9 54 50 -8
-75 74 -71 82 -65 85 17 101
27 -74 46 -30 41 -2 95 -98
8 -5 -23 -55 46 58 -45 76
-12 -75 97 83 -107 75 -101 -51
-70 76 98 16 -47 63 -59 -49
-115 44 11 107 60 25 -69 -43
78 78 -52 88 36 -64 -57 27
43 67 34 -94 -115 39 -55 12
-54 -66 -1 -81 19 -96 15 65
-118 97 21 -109 40 -96 -59 -99
52 20 -56 -51 -123 -33 125 -107
-21 -63 -43 101 8 -70 -7 -48
40 64 100 -41 -69 -78 -98 -65
-42 -18 13 105 -127 28 -95 64
-80 -34 13 -80 -101 105 80 -42
-13 2 77 9 -58 77 -20 57
-39 76 83 -88 45 -57 -79 -60
-62 1 -12 -16 6 86 68 -71
-80 -106 -31 -123 -64 43 9 12
00000000: 97a1 c161 2bca 21d0 ec95 f853 b6e3 cf19
00000010: ac3f a5b5 162d cdbf ce42 d412 f60e 12b7
00000020: 0f15 099b c2a2 e251 c9e5 9836 30a1 df9a
00000030: f391 d85e 59e9 7ffc 9d45 a65a c4aa e354
00000040: 4ef3 0a97 0626 a724 b6c0 2a46 4fe9 3c30
00000050: 326e ac10 cefe e94f b533 f858 26d2 b3c4
00000060: 12fb 96b1 0936 32f8 b54a b952 bf55 1165
00000070: 1bb6 2ee2 29fe 5f9e 08fb e9c9 2e3a d34c
00000080: f4b5 6153 954b 9bcd ba4c 6210 d13f c5cf
00000090: 8d2c 0b6b 3c19 bbd5 4e4e cc58 24c0 c71b
000000a0: 2b43 22a2 8d27 c90c cabe ffaf 13a0 0f41
000000b0: 8a61 1593 28a0 c59d 3414 c8cd 85df 7d95
000000c0: ebc1 d565 08ba f9d0 2840 64d7 bbb2 9ebf
000000d0: d6ee 0d69 811c a140 b0de 0db0 9b69 50d6
000000e0: f302 4d09 c64d ec39 d94c 53a8 2dc7 b1c4
000000f0: c201 f4f0 0656 44b9 b096 e185 c02b 090c

tfl.pseudo_qconst3 i1 [144, 1, 1, 24]
37 17 -86 45 -34 52 -14 7
17 -19 71 -2 5 -34 43 -46
64 89 -114 -5 127 -32 11 18
-23 85 127 58 55 -72 -81 91
-58 57 -49 27 -38 -62 20 -44
72 -14 -28 -15 -15 16 93 -79
55 11 13 2 -3 0 13 70
-71 -127 -59 81 -46 -64 -102 -2
-87 -4 24 38 -91 0 33 43
28 -59 45 -41 25 -14 -36 -4
-11 -123 -56 55 -23 -6 -3 49
-96 108 -4 12 -66 -27 46 127
96 45 -94 36 -65 17 -70 -124
18 58 1 30 70 109 73 70
-69 50 127 91 43 -25 -106 82
34 108 69 81 -5 26 -3 -64
-19 -127 32 121 -79 76 -88 100
25 -18 48 65 -16 -29 16 -29
41 -43 -120 22 12 -23 13 11
-33 31 127 112 102 -54 -34 -38
20 -80 -53 -59 -86 43 -111 70
-90 -62 -95 -110 95 39 47 58
36 1 -41 96 -54 29 41 -66
-96 42 -125 30 -81 64 -127 -88
-28 29 25 5 14 -43 43 74
75 127 -73 -18 58 -19 45 41
84 -37 -84 -107 118 -73 -82 14
56 94 54 60 105 -109 -127 119
-45 89 79 -105 -41 -80 75 -54
-7 50 -14 -40 -24 -102 33 -91
-51 32 -53 -43 -16 -127 79 31
61 -122 54 -8 80 -7 32 -95
00000000: 2511 aa2d de34 f207 11ed 47fe 05de 2bd2
00000010: 4059 8efb 7fe0 0b12 e955 7f3a 37b8 af5b
00000020: c639 cf1b dac2 14d4 48f2 e4f1 f110 5db1
00000030: 370b 0d02 fd00 0d46 b981 c551 d2c0 9afe
00000040: a9fc 1826 a500 212b 1cc5 2dd7 19f2 dcfc
00000050: f585 c837 e9fa fd31 a06c fc0c bee5 2e7f
00000060: 602d a224 bf11 ba84 123a 011e 466d 4946
00000070: bb32 7f5b 2be7 9652 226c 4551 fb1a fdc0
00000080: ed81 2079 b14c a864 19ee 3041 f0e3 10e3
00000090: 29d5 8816 0ce9 0d0b df1f 7f70 66ca deda
000000a0: 14b0 cbc5 aa2b 9146 a6c2 a192 5f27 2f3a
000000b0: 2401 d760 ca1d 29be a02a 831e af40 81a8
000000c0: e41d 1905 0ed5 2b4a 4b7f b7ee 3aed 2d29
000000d0: 54db ac95 76b7 ae0e 385e 363c 6993 8177
000000e0: d359 4f97 d7b0 4bca f932 f2d8 e89a 21a5
000000f0: cd20 cbd5 f081 4f1f 3d86 36f8 50f9 20a1

tfl.pseudo_qconst5 i1 [24, 1, 1, 144]
-24 22 -41 -39 -64 93 -35 26
-3 -32 -64 -71 7 -90 -110 -127
-12 23 -37 -14 -86 -5 9 12
-46 -28 -10 -64 -57 -8 -45 3
35 42 -116 -15 -85 19 78 63
-12 28 83 5 42 -11 -5 -6
-3 -100 75 73 -65 -66 43 77
70 -21 12 -33 -38 -39 81 17
-64 59 -105 60 68 28 -50 -10
5 84 -26 -49 35 -30 39 29
-58 -54 -104 -19 -36 84 26 21
37 -32 15 59 -2 14 68 52
63 8 23 47 75 6 -61 -77
52 70 -27 53 -68 94 -64 79
-47 -43 -115 13 91 49 -23 59
-54 12 -27 -48 -106 5 24 -53
-89 9 -92 82 -93 49 5 75
45 25 2 -67 -87 -64 31 0
-51 -6 -11 -14 -35 49 120 -22
-56 31 17 33 -83 61 -25 -98
-54 26 49 24 89 -11 -109 13
33 34 47 36 67 58 48 18
60 45 75 -20 13 -77 30 -56
3 10 70 -46 -61 101 23 1
-63 -3 24 -127 -36 68 -61 -15
-37 -43 14 -45 51 -13 -100 -97
18 75 47 14 -68 -27 -67 101
43 59 -15 -6 16 84 -26 36
-95 118 -20 23 12 -34 -118 7
-25 53 47 -50 -70 -8 67 64
-15 -46 -100 -63 48 -12 -106 71
63 32 57 1 69 8 62 13
00000000: e816 d7d9 c05d dd1a fde0 c0b9 07a6 9281
00000010: f417 dbf2 aafb 090c d2e4 f6c0 c7f8 d303
00000020: 232a 8cf1 ab13 4e3f f41c 5305 2af5 fbfa
00000030: fd9c 4b49 bfbe 2b4d 46eb 0cdf dad9 5111
00000040: c03b 973c 441c cef6 0554 e6cf 23e2 271d
00000050: c6ca 98ed dc54 1a15 25e0 0f3b fe0e 4434
00000060: 3f08 172f 4b06 c3b3 3446 e535 bc5e c04f
00000070: d1d5 8d0d 5b31 e93b ca0c e5d0 9605 18cb
00000080: a709 a452 a331 054b 2d19 02bd a9c0 1f00
00000090: cdfa f5f2 dd31 78ea c81f 1121 ad3d e79e
000000a0: ca1a 3118 59f5 930d 2122 2f24 433a 3012
000000b0: 3c2d 4bec 0db3 1ec8 030a 46d2 c365 1701
000000c0: c1fd 1881 dc44 c3f1 dbd5 0ed3 33f3 9c9f
000000d0: 124b 2f0e bce5 bd65 2b3b f1fa 1054 e624
000000e0: a176 ec17 0cde 8a07 e735 2fce baf8 4340
000000f0: f1d2 9cc1 30f4 9647 3f20 3901 4508 3e0d

tfl.pseudo_qconst7 i1 [144, 1, 1, 40]
29 58 -58 -13 54 -68 -56 91
28 33 -15 117 24 103 12 52
-24 -55 -47 13 127 55 83 38
-96 14 93 5 -50 95 41 -87
-85 39 -39 -84 -18 79 -64 -97
-98 61 -13 1 92 -49 85 24
-98 75 76 29 85 -62 125 -40
7 17 -22 111 -122 91 127 5
-64 18 104 -96 44 -10 55 11
103 -20 30 79 32 -30 -33 -3
-12 -31 51 30 -39 -127 -93 55
-2 6 57 24 -51 -77 -89 23
-4 -31 -19 -50 -73 -44 -11 69
63 -82 -40 12 -13 -64 -79 15
-56 -77 -10 -8 5 -52 -68 -58
80 65 81 -24 35 1 -78 99
104 0 -30 -32 -13 -37 24 -104
15 94 46 -100 95 60 -44 -62
-43 -72 25 2 82 -27 -57 -24
7 35 127 55 -81 34 58 -18
64 -37 -127 -10 44 68 -44 26
-2 -35 -57 10 33 63 43 -47
41 -83 -73 61 2 -14 32 11
-60 76 -46 23 113 -3 3 -31
68 65 -3 124 27 -4 -17 49
84 -36 62 -26 -8 -28 13 -33
127 -44 -42 3 17 -5 67 56
-60 -82 -40 48 -56 29 14 12
53 -29 -68 -27 79 77 -1 -53
-68 7 -43 0 33 55 48 74
-25 -25 -53 84 112 -89 -94 -36
111 86 15 -46 -61 -101 -4 -82
00000000: 1d3a c6f3 36bc c85b 1c21 f175 1867 0c34
00000010: e8c9 d10d 7f37 5326 a00e 5d05 ce5f 29a9
00000020: ab27 d9ac ee4f c09f 9e3d f301 5ccf 5518
00000030: 9e4b 4c1d 55c2 7dd8 0711 ea6f 865b 7f05
00000040: c012 68a0 2cf6 370b 67ec 1e4f 20e2 dffd
00000050: f4e1 331e d981 a337 fe06 3918 cdb3 a717
00000060: fce1 edce b7d4 f545 3fae d80c f3c0 b10f
00000070: c8b3 f6f8 05cc bcc6 5041 51e8 2301 b263
00000080: 6800 e2e0 f3db 1898 0f5e 2e9c 5f3c d4c2
00000090: d5b8 1902 52e5 c7e8 0723 7f37 af22 3aee
000000a0: 40db 81f6 2c44 d41a fedd c70a 213f 2bd1
000000b0: 29ad b73d 02f2 200b c44c d217 71fd 03e1
000000c0: 4441 fd7c 1bfc ef31 54dc 3ee6 f8e4 0ddf
000000d0: 7fd4 d603 11fb 4338 c4ae d830 c81d 0e0c
000000e0: 35e3 bce5 4f4d ffcb bc07 d500 2137 304a
000000f0: e7e7 cb54 70a7 a2dc 6f56 0fd2 c39b fcae

tfl.pseudo_qconst9 i1 [40, 1, 1, 144]
-36 -57 -51 70 58 2 -126 8
-46 -33 -69 1 -33 21 -25 -110
-41 36 -85 -9 95 85 23 -48
-76 -81 53 90 -73 -70 -3 3
11 32 -12 -89 -113 50 -58 -11
24 -57 -6 -60 90 22 -91 1
-87 35 -113 -57 68 49 53 -102
-6 18 24 -32 55 -105 -65 -65
-65 -28 -109 -62 -92 -87 53 9
29 -44 -72 78 -37 33 91 67
13 55 -127 -119 -54 62 13 -52
43 -48 16 -18 24 21 49 84
60 -83 30 -19 35 -53 42 23
35 -76 71 16 0 -67 -30 -47
-9 -56 76 -60 82 -111 -5 -36
-53 -67 -35 74 2 20 7 26
15 62 20 -97 -40 -42 -38 -9
20 -23 -20 -112 -96 51 45 -121
34 -94 -85 -13 -106 90 -54 59
58 -81 73 -74 -34 20 29 -80
81 -11 -20 56 41 -58 -24 22
-38 -57 -48 74 -90 -18 -29 -73
-103 -110 58 -74 -25 -45 -92 -72
-78 -121 -39 41 15 -91 49 -101
84 5 -93 -63 47 -80 -115 0
67 -66 -88 -56 101 -65 -52 98
-31 -42 -93 52 52 -115 38 46
-31 -125 -59 -127 -6 3 -66 4
46 103 78 111 60 47 74 79
-112 -34 -31 -35 39 -127 3 -4
-93 -108 97 -81 10 -12 25 0
111 -59 -105 6 -4 -103 5 -5
00000000: dcc7 cd46 3a02 8208 d2df bb01 df15 e792
00000010: d724 abf7 5f55 17d0 b4af 355a b7ba fd03
00000020: 0b20 f4a7 8f32 c6f5 18c7 fac4 5a16 a501
00000030: a923 8fc7 4431 359a fa12 18e0 3797 bfbf
00000040: bfe4 93c2 a4a9 3509 1dd4 b84e db21 5b43
00000050: 0d37 8189 ca3e 0dcc 2bd0 10ee 1815 3154
00000060: 3cad 1eed 23cb 2a17 23b4 4710 00bd e2d1
00000070: f7c8 4cc4 5291 fbdc cbbd dd4a 0214 071a
00000080: 0f3e 149f d8d6 daf7 14e9 ec90 a033 2d87
00000090: 22a2 abf3 965a ca3b 3aaf 49b6 de14 1db0
000000a0: 51f5 ec38 29c6 e816 dac7 d04a a6ee e3b7
000000b0: 9992 3ab6 e7d3 a4b8 b287 d929 0fa5 319b
000000c0: 5405 a3c1 2fb0 8d00 43be a8c8 65bf cc62
000000d0: e1d6 a334 348d 262e e183 c581 fa03 be04
000000e0: 2e67 4e6f 3c2f 4a4f 90de e1dd 2781 03fc
000000f0: a394 61af 0af4 1900 6fc5 9706 fc99 05fb

tfl.pseudo_qconst11 i1 [1, 5, 5, 144]
-8 21 7 -105 -24 68 28 -36
-88 61 36 23 -15 18 47 52
-65 -50 -10 -52 -25 18 -84 -32
-45 12 -90 127 108 -10 59 64
-45 -114 94 56 -14 0 -56 56
-26 22 -94 124 -17 107 -66 -9
-30 -37 39 -6 -14 3 -54 20
-1 52 -67 42 -127 -78 -37 -15
69 -93 93 8 -91 14 -39 59
26 127 -21 -40 26 -47 -44 59
-13 -127 98 -101 -54 -19 82 -127
50 40 -45 -62 -67 -64 -127 -35
-65 127 3 -31 127 -84 -27 36
-108 -83 -53 -28 67 -25 -36 -125
-127 -18 31 -2 -48 30 1 45
60 -24 -12 29 41 6 -9 10
-3 -23 20 7 32 -9 46 1
-55 -28 7 -7 127 -48 44 -95
46 -5 14 -53 -77 11 -89 49
-98 28 93 69 -48 -85 55 76
-76 -62 -26 -78 -127 -127 -127 -127
1 -40 -83 104 42 40 -71 123
-49 41 36 46 -64 -47 -28 93
36 106 -65 110 -26 79 -44 73
-60 -2 95 -23 -14 95 -31 39
-14 58 -35 32 -25 10 -18 -30
23 -76 19 16 -44 -14 -17 35
29 -6 -35 1 25 -108 -34 56
90 -72 42 -66 -23 -23 23 -94
37 -30 -87 -99 -111 -24 -85 -72
-127 71 -22 -40 116 -23 6 0
-34 -117 -65 5 60 1 -8 36
00000000: f815 0797 e844 1cdc a83d 2417 f112 2f34
00000010: bfce f6cc e712 ace0 d30c a67f 6cf6 3b40
00000020: d38e 5e38 f200 c838 e616 a27c ef6b bef7
00000030: e2db 27fa f203 ca14 ff34 bd2a 81b2 dbf1
00000040: 45a3 5d08 a50e d93b 1a7f ebd8 1ad1 d43b
00000050: f381 629b caed 5281 3228 d3c2 bdc0 81dd
00000060: bf7f 03e1 7fac e524 94ad cbe4 43e7 dc83
00000070: 81ee 1ffe d01e 012d 3ce8 f41d 2906 f70a
00000080: fde9 1407 20f7 2e01 c9e4 07f9 7fd0 2ca1
00000090: 2efb 0ecb b30b a731 9e1c 5d45 d0ab 374c
000000a0: b4c2 e6b2 8181 8181 01d8 ad68 2a28 b97b
000000b0: cf29 242e c0d1 e45d 246a bf6e e64f d449
000000c0: c4fe 5fe9 f25f e127 f23a dd20 e70a eee2
000000d0: 17b4 1310 d4f2 ef23 1dfa dd01 1994 de38
000000e0: 5ab8 2abe e9e9 17a2 25e2 a99d 91e8 abb8
000000f0: 8147 ead8 74e9 0600 de8b bf05 3c01 f824

tfl.pseudo_qconst13 i1 [144, 1, 1, 24]
42 -28 -22 41 12 -11 20 10
51 -127 -59 36 53 54 -71 63
68 -19 6 23 -53 -41 11 -9
-78 -72 40 102 -56 -38 25 -110
-71 20 -9 45 -17 97 -16 127
-14 40 93 -61 -99 -13 47 -84
-19 -31 -103 7 17 -38 -83 95
-102 -43 127 -41 15 -95 -86 17
119 60 -86 -73 -105 -95 -82 53
8 -58 -69 -74 -37 7 35 -80
55 103 5 58 7 -102 -44 -23
-7 -25 -84 -46 39 127 44 53
-73 -66 29 -20 -14 59 -69 27
5 113 8 46 40 -6 46 -66
32 77 28 26 -42 127 -64 -95
85 37 53 -92 -66 -127 53 104
85 -36 71 -55 52 45 124 39
-126 -61 31 82 -89 85 83 -17
-87 -46 -64 -78 -20 62 16 -96
24 5 -73 0 -42 127 40 45
60 12 40 29 69 -10 37 -63
53 59 82 48 -74 77 20 66
-83 22 -38 84 -68 -53 74 61
-78 -47 101 -127 53 8 -66 92
127 80 -49 -1 -54 17 -71 124
-19 -2 52 -30 -81 4 -110 15
89 -47 -47 -116 43 -26 -43 102
81 9 25 40 -32 31 -77 -127
25 -98 -14 54 -29 -19 -40 96
-121 -14 -11 -51 0 -113 81 84
41 59 -69 -39 -78 -56 3 -73
-102 32 42 127 -28 99 26 -41
00000000: 2ae4 ea29 0cf5 140a 3381 c524 3536 b93f
00000010: 44ed 0617 cbd7 0bf7 b2b8 2866 c8da 1992
00000020: b914 f72d ef61 f07f f228 5dc3 9df3 2fac
00000030: ede1 9907 11da ad5f 9ad5 7fd7 0fa1 aa11
00000040: 773c aab7 97a1 ae35 08c6 bbb6 db07 23b0
00000050: 3767 053a 079a d4e9 f9e7 acd2 277f 2c35
00000060: b7be 1dec f23b bb1b 0571 082e 28fa 2ebe
00000070: 204d 1c1a d67f c0a1 5525 35a4 be81 3568
00000080: 55dc 47c9 342d 7c27 82c3 1f52 a755 53ef
00000090: a9d2 c0b2 ec3e 10a0 1805 b700 d67f 282d
000000a0: 3c0c 281d 45f6 25c1 353b 5230 b64d 1442
000000b0: ad16 da54 bccb 4a3d b2d1 6581 3508 be5c
000000c0: 7f50 cfff ca11 b97c edfe 34e2 af04 920f
000000d0: 59d1 d18c 2be6 d566 5109 1928 e01f b381
000000e0: 199e f236 e3ed d860 87f2 f5cd 008f 5154
000000f0: 293b bbd9 b2c8 03b7 9a20 2a7f e463 1ad7

tfl.pseudo_qconst15 i1 [24, 1, 1, 144]
-32 14 64 11 38 -40 30 109
-6 -28 9 -57 14 16 34 0
-36 73 50 -22 -50 34 -52 38
-76 24 47 33 -127 18 -46 -13
-35 -25 -63 22 -78 -49 -47 -5
-102 65 53 -1 -41 23 -48 60
-59 106 33 -50 -123 -12 -52 -88
48 24 -10 -2 -86 46 113 38
-77 -24 100 66 96 46 -20 58
-25 32 17 -23 -9 18 34 -27
-70 -32 77 -41 -58 -62 73 11
-57 -91 -12 95 -32 -32 15 52
-47 97 -47 29 -31 -43 -28 29
24 17 -5 -22 2 35 30 66
39 75 38 -3 -126 18 -5 -15
8 65 109 -46 25 -20 53 121
-45 -65 -68 -64 13 -26 -44 -91
-47 -26 52 -14 -7 36 -18 -98
17 -9 8 35 -43 38 -7 63
39 36 -65 -77 -22 -67 71 87
23 29 67 29 103 -27 -3 -21
-15 -51 -24 -45 -48 -90 9 -76
124 58 -15 -46 -83 -79 -20 64
99 -45 41 -55 -17 -37 -31 -110
-27 -32 4 34 26 -60 40 124
1 -37 9 -36 -69 3 54 21
-97 43 -61 34 -76 83 -37 3
-5 -95 -40 -73 84 -1 -25 33
8 49 38 46 -27 27 76 -40
-7 -33 -90 -10 -64 -33 46 -14
-27 -40 -22 15 46 68 -63 -66
-90 33 -100 -26 59 -65 68 81
00000000: e00e 400b 26d8 1e6d fae4 09c7 0e10 2200
00000010: dc49 32ea ce22 cc26 b418 2f21 8112 d2f3
00000020: dde7 c116 b2cf d1fb 9a41 35ff d717 d03c
00000030: c56a 21ce 85f4 cca8 3018 f6fe aa2e 7126
00000040: b3e8 6442 602e ec3a e720 11e9 f712 22e5
00000050: bae0 4dd7 c6c2 490b c7a5 f45f e0e0 0f34
00000060: d161 d11d e1d5 e41d 1811 fbea 0223 1e42
00000070: 274b 26fd 8212 fbf1 0841 6dd2 19ec 3579
00000080: d3bf bcc0 0de6 d4a5 d1e6 34f2 f924 ee9e
00000090: 11f7 0823 d526 f93f 2724 bfb3 eabd 4757
000000a0: 171d 431d 67e5 fdeb f1cd e8d3 d0a6 09b4
000000b0: 7c3a f1d2 adb1 ec40 63d3 29c9 efdb e192
000000c0: e5e0 0422 1ac4 287c 01db 09dc bb03 3615
000000d0: 9f2b c322 b453 db03 fba1 d8b7 54ff e721
000000e0: 0831 262e e51b 4cd8 f9df a6f6 c0df 2ef2
000000f0: e5d8 ea0f 2e44 c1be a621 9ce6 3bbf 4451

tfl.pseudo_qconst17 i1 [144, 1, 1, 40]
46 -20 -12 59 -57 -33 101 -52
88 -67 -61 105 -104 23 -87 18
97 68 -82 66 80 28 103 127
-58 -55 59 28 93 -77 -31 101
-69 112 82 -91 11 -27 -108 22
65 -65 61 14 -55 45 63 -48
105 15 96 -62 -35 21 111 100
-22 41 -51 -107 26 -110 -72 -80
43 99 -96 0 20 80 17 61
-96 -35 60 20 64 42 -127 -79
-124 -43 -110 87 -6 0 -13 25
-40 122 8 -52 -88 -29 -26 23
71 -106 117 -75 0 -109 3 -23
32 67 9 -93 -37 -44 40 13
0 13 -63 -14 118 -26 -127 -102
-84 123 -23 -78 77 127 28 105
66 105 -16 -15 32 -50 -53 38
41 55 -78 57 83 -64 102 99
63 62 36 28 -77 29 8 17
-20 -60 19 58 22 11 21 113
127 120 -82 50 -34 85 -28 -35
-98 -79 18 18 48 101 -4 -83
0 14 86 24 -12 -24 -85 84
13 -64 80 -46 -56 120 50 -39
30 -12 -16 25 -11 -56 25 46
127 -31 21 -33 9 67 -71 40
-35 -12 -48 58 56 23 -13 -14
43 69 32 54 16 66 27 73
36 27 21 35 42 67 -20 -23
52 21 37 63 -54 -47 5 -66
23 19 -52 53 -44 -23 52 48
-26 -19 4 69 -59 3 46 82
00000000: 2eec f43b c7df 65cc 58bd c369 9817 a912
00000010: 6144 ae42 501c 677f c6c9 3b1c 5db3 e165
00000020: bb70 52a5 0be5 9416 41bf 3d0e c92d 3fd0
00000030: 690f 60c2 dd15 6f64 ea29 cd95 1a92 b8b0
00000040: 2b63 a000 1450 113d a0dd 3c14 402a 81b1
00000050: 84d5 9257 fa00 f319 d87a 08cc a8e3 e617
00000060: 4796 75b5 0093 03e9 2043 09a3 dbd4 280d
00000070: 000d c1f2 76e6 819a ac7b e9b2 4d7f 1c69
00000080: 4269 f0f1 20ce cb26 2937 b239 53c0 6663
00000090: 3f3e 241c b31d 0811 ecc4 133a 160b 1571
000000a0: 7f78 ae32 de55 e4dd 9eb1 1212 3065 fcad
000000b0: 000e 5618 f4e8 ab54 0dc0 50d2 c878 32d9
000000c0: 1ef4 f019 f5c8 192e 7fe1 15df 0943 b928
000000d0: ddf4 d03a 3817 f3f2 2b45 2036 1042 1b49
000000e0: 241b 1523 2a43 ece9 3415 253f cad1 05be
000000f0: 1713 cc35 d4e9 3430 e6ed 0445 c503 2e52

tfl.pseudo_qconst19 i1 [40, 1, 1, 144]
42 12 49 -23 58 13 -64 91
-53 82 -49 -63 47 14 -17 77
10 -57 62 97 -50 -75 -102 -113
-34 -51 45 69 -77 -18 -56 -15
-7 47 -3 84 41 58 -56 -14
44 124 -46 -46 73 -31 -54 -79
54 63 74 53 3 65 26 2
56 6 -79 -35 55 -22 51 -119
-30 18 -75 -7 -64 -52 -15 -16
-33 1 -56 -3 62 77 25 -9
57 -24 16 49 -57 88 96 -97
22 -40 -48 73 41 74 -13 39
21 72 -23 10 39 -22 -28 -5
-35 23 16 -53 1 102 -76 58
29 -16 -48 -16 -6 52 64 -42
-30 85 103 127 25 -8 -77 39
34 15 -5 10 -34 -43 48 27
-25 32 82 -85 -22 113 19 107
-68 11 50 -8 -23 42 70 -79
-118 25 -38 -20 -31 87 115 87
14 56 38 -15 1 -35 8 -51
-54 -59 32 -51 90 -107 28 -54
103 -25 108 -40 -4 18 -67 -51
-2 78 -82 -2 -70 3 -19 11
-58 -119 -22 18 57 -12 -99 95
46 -30 -38 -82 27 -50 67 -92
-98 59 6 29 37 -69 -62 -40
62 -12 -4 11 34 34 49 21
-28 -67 19 98 9 5 -56 -8
40 -96 27 73 -35 -2 112 92
6 -27 -21 -2 0 -91 -5 41
-70 84 -63 -66 12 88 -6 61
00000000: 2a0c 31e9 3a0d c05b cb52 cfc1 2f0e ef4d
00000010: 0ac7 3e61 ceb5 9a8f decd 2d45 b3ee c8f1
00000020: f92f fd54 293a c8f2 2c7c d2d2 49e1 cab1
00000030: 363f 4a35 0341 1a02 3806 b1dd 37ea 3389
00000040: e212 b5f9 c0cc f1f0 df01 c8fd 3e4d 19f7
00000050: 39e8 1031 c758 609f 16d8 d049 294a f327
00000060: 1548 e90a 27ea e4fb dd17 10cb 0166 b43a
00000070: 1df0 d0f0 fa34 40d6 e255 677f 19f8 b327
00000080: 220f fb0a ded5 301b e720 52ab ea71 136b
00000090: bc0b 32f8 e92a 46b1 8a19 daec e157 7357
000000a0: 0e38 26f1 01dd 08cd cac5 20cd 5a95 1cca
000000b0: 67e7 6cd8 fc12 bdcd fe4e aefe ba03 ed0b
000000c0: c689 ea12 39f4 9d5f 2ee2 daae 1bce 43a4
000000d0: 9e3b 061d 25bb c2d8 3ef4 fc0b 2222 3115
000000e0: e4bd 1362 0905 c8f8 28a0 1b49 ddfe 705c
000000f0: 06e5 ebfe 00a5 fb29 ba54 c1be 0c58 fa3d

tfl.pseudo_qconst21 i1 [1, 5, 5, 144]
30 5 29 -48 -46 -41 -57 -23
16 54 63 69 -13 14 127 58
-34 -103 -64 -53 -51 13 -12 -81
-18 -83 25 51 112 -85 59 73
-83 41 -97 -88 -51 -6 -62 48
-23 -52 11 -30 -90 -107 103 -14
-127 -127 -108 -52 1 44 -35 -69
90 -33 -30 -127 -19 10 -124 15
-83 -30 -98 -90 -64 -55 -77 30
-66 1 -29 127 51 -57 -25 -44
5 -127 68 -99 0 -98 127 -12
127 63 34 127 -52 -94 -20 25
8 -39 -68 21 -80 -13 50 24
-127 -28 127 -45 -26 -109 -100 -16
-5 117 14 -1 -66 -69 -19 -25
-97 3 37 0 -127 -74 -5 10
-13 57 127 5 15 -92 -127 50
-62 127 59 46 -16 13 -123 127
4 4 -56 34 -50 -5 -18 -96
9 -34 9 74 -14 -3 90 42
-51 -90 -47 104 -77 44 -6 -93
13 -93 38 -67 74 115 70 -70
-26 3 -67 -127 38 103 -77 -27
-99 1 -29 -17 -42 -31 53 -5
-117 -41 -124 -3 -127 -45 6 -71
-47 -101 -2 -36 -40 -55 19 48
-104 -12 11 -74 -28 -27 19 -78
-97 40 -122 66 127 5 -60 -127
5 -89 2 -43 22 -66 -79 27
69 -12 45 3 -93 -127 -13 -69
-78 -44 -27 -19 -13 0 114 49
-32 -23 27 -23 -6 -127 -98 -88
00000000: 1e05 1dd0 d2d7 c7e9 1036 3f45 f30e 7f3a
00000010: de99 c0cb cd0d f4af eead 1933 70ab 3b49
00000020: ad29 9fa8 cdfa c230 e9cc 0be2 a695 67f2
00000030: 8181 94cc 012c ddbb 5adf e281 ed0a 840f
00000040: ade2 9ea6 c0c9 b31e be01 e37f 33c7 e7d4
00000050: 0581 449d 009e 7ff4 7f3f 227f cca2 ec19
00000060: 08d9 bc15 b0f3 3218 81e4 7fd3 e693 9cf0
00000070: fb75 0eff bebb ede7 9f03 2500 81b6 fb0a
00000080: f339 7f05 0fa4 8132 c27f 3b2e f00d 857f
00000090: 0404 c822 cefb eea0 09de 094a f2fd 5a2a
000000a0: cda6 d168 b32c faa3 0da3 26bd 4a73 46ba
000000b0: e603 bd81 2667 b3e5 9d01 e3ef d6e1 35fb
000000c0: 8bd7 84fd 81d3 06b9 d19b fedc d8c9 1330
000000d0: 98f4 0bb6 e4e5 13b2 9f28 8642 7f05 c481
000000e0: 05a7 02d5 16be b11b 45f4 2d03 a381 f3bb
000000f0: b2d4 e5ed f300 7231 e0e9 1be9 fa81 9ea8

tfl.pseudo_qconst23 i1 [144, 1, 1, 24]
-2 112 86 97 116 60 -98 35
65 -96 -42 22 47 69 122 -87
70 117 32 125 -127 -88 14 -14
7 63 3 62 -85 -47 11 -76
-39 -127 -6 -9 -8 18 27 32
-32 -95 35 -42 54 -37 -55 -84
-127 76 -33 -93 -102 -96 94 -122
-90 -118 -44 -53 -102 77 52 36
49 -108 102 -71 -122 -99 5 -69
72 -12 -85 -36 51 -19 -44 69
23 104 33 34 -20 -51 27 -33
-63 8 67 -29 31 -26 -127 10
10 -101 -13 -4 -56 -48 57 -55
-72 6 -84 2 -10 27 30 44
-127 -25 85 68 -87 35 81 13
42 84 -32 8 -94 -64 60 51
45 26 94 -64 -87 82 113 127
31 -13 110 -19 107 -7 -51 43
-32 -36 -28 -82 -45 -33 -38 77
86 69 67 -13 20 23 -7 81
107 24 41 116 85 127 -79 -76
3 -119 -4 -100 33 62 97 23
-106 12 -46 73 -39 -121 -126 -1
-112 -50 127 -96 6 28 -43 10
-101 77 -57 115 24 11 -98 -93
81 -75 38 -94 -3 13 -63 63
56 79 -101 90 -89 -127 8 61
-90 -58 45 7 42 -13 61 -60
41 62 -127 -96 36 41 80 -83
-64 99 -77 66 49 63 50 22
-31 64 -11 51 72 -1 34 15
-45 -102 -96 127 -119 44 -72 -54
00000000: fe70 5661 743c 9e23 41a0 d616 2f45 7aa9
00000010: 4675 207d 81a8 0ef2 073f 033e abd1 0bb4
00000020: d981 faf7 f812 1b20 e0a1 23d6 36db c9ac
00000030: 814c dfa3 9aa0 5e86 a68a d4cb 9a4d 3424
00000040: 3194 66b9 869d 05bb 48f4 abdc 33ed d445
00000050: 1768 2122 eccd 1bdf c108 43e3 1fe6 810a
00000060: 0a9b f3fc c8d0 39c9 b806 ac02 f61b 1e2c
00000070: 81e7 5544 a923 510d 2a54 e008 a2c0 3c33
00000080: 2d1a 5ec0 a952 717f 1ff3 6eed 6bf9 cd2b
00000090: e0dc e4ae d3df da4d 5645 43f3 1417 f951
000000a0: 6b18 2974 557f b1b4 0389 fc9c 213e 6117
000000b0: 960c d249 d987 82ff 90ce 7fa0 061c d50a
000000c0: 9b4d c773 180b 9ea3 51b5 26a2 fd0d c13f
000000d0: 384f 9b5a a781 083d a6c6 2d07 2af3 3dc4
000000e0: 293e 81a0 2429 50ad c063 b342 313f 3216
000000f0: e140 f533 48ff 220f d39a a07f 892c b8ca

tfl.pseudo_qconst25 i1 [24, 1, 1, 96]
-19 -21 -39 22 85 -40 59 126
56 -64 53 -9 91 23 68 18
55 57 48 -1 -57 -93 52 51
13 -88 -82 -51 -55 25 25 9
4 51 -101 63 -62 55 -66 30
6 -54 1 41 90 71 59 63
15 46 -71 -37 -67 2 -49 1
50 57 -12 49 -70 -35 -40 34
71 6 -21 0 8 9 -11 76
24 10 -6 49 -9 74 -30 2
-28 -4 -63 32 127 47 -24 -9
19 -79 52 -32 75 -56 69 -27
29 -85 48 -12 66 -40 41 61
-9 59 101 -48 -86 -39 56 -13
47 30 48 -4 17 -2 39 22
30 78 8 -43 -14 78 -3 78
-21 -24 -32 28 71 -120 -66 -24
12 45 56 15 48 58 -15 8
15 -60 -54 -12 11 90 68 -27
40 -36 -35 -49 15 31 40 127
-42 -98 37 -121 -78 -55 -21 19
59 99 60 -86 38 -44 69 86
-50 -7 -41 -7 111 -16 -5 8
-70 -55 102 -6 52 102 52 35
2 -35 46 -7 49 94 -89 -84
-20 -52 -18 21 -72 -27 -9 1
-50 22 5 -14 -57 65 -80 -8
1 -48 -23 -127 57 -79 21 3
7 -81 114 -67 -52 -28 -113 -58
-5 -18 -73 60 48 20 37 -17
68 8 -22 48 -52 -20 -2 -71
-1 -114 34 -28 -61 31 -29 74
00000000: edeb d916 55d8 3b7e 38c0 35f7 5b17 4412
00000010: 3739 30ff c7a3 3433 0da8 aecd c919 1909
00000020: 0433 9b3f c237 be1e 06ca 0129 5a47 3b3f
00000030: 0f2e b9db bd02 cf01 3239 f431 badd d822
00000040: 4706 eb00 0809 f54c 180a fa31 f74a e202
00000050: e4fc c120 7f2f e8f7 13b1 34e0 4bc8 45e5
00000060: 1dab 30f4 42d8 293d f73b 65d0 aad9 38f3
00000070: 2f1e 30fc 11fe 2716 1e4e 08d5 f24e fd4e
00000080: ebe8 e01c 4788 bee8 0c2d 380f 303a f108
00000090: 0fc4 caf4 0b5a 44e5 28dc ddcf 0f1f 287f
000000a0: d69e 2587 b2c9 eb13 3b63 3caa 26d4 4556
000000b0: cef9 d7f9 6ff0 fb08 bac9 66fa 3466 3423
000000c0: 02dd 2ef9 315e a7ac eccc ee15 b8e5 f701
000000d0: ce16 05f2 c741 b0f8 01d0 e981 39b1 1503
000000e0: 07af 72bd cce4 8fc6 fbee b73c 3014 25ef
000000f0: 4408 ea30 ccec feb9 ff8e 22e4 c31f e34a

tfl.pseudo_qconst27 i1 [96, 1, 1, 24]
42 -114 -80 -9 -51 35 61 35
18 -75 -5 -66 -126 16 -99 -14
81 -35 -127 34 -67 -87 -5 -36
7 23 106 3 31 -33 11 -90
-19 16 -39 20 45 31 20 113
-111 28 -8 26 -42 -27 127 -78
-17 80 111 81 -29 15 37 77
-40 61 -55 45 40 104 10 -55
-89 -64 127 115 58 82 -13 -47
32 -126 -36 32 38 70 -67 -23
-18 -12 -65 8 -87 -7 -82 -48
54 -70 -46 -52 15 -48 -62 127
-52 -91 -4 35 -21 -39 38 62
-33 30 -62 31 33 36 -63 48
-20 8 58 32 -127 -34 10 34
-78 108 96 -65 -28 -29 33 -8
13 56 103 -15 127 -3 -24 -90
-74 10 62 -41 59 -56 1 17
-52 -46 -1 -58 44 -51 2 -82
75 -20 -49 -17 -66 -17 27 -48
-41 -82 7 39 -37 38 43 -127
-58 -13 101 34 9 106 -50 90
9 72 48 45 -27 127 13 -20
-13 18 -1 32 10 -18 -30 -32
54 57 54 2 -73 6 -98 10
-18 91 123 71 -66 86 -59 -65
86 77 -43 18 20 127 -81 -14
-112 106 -65 -45 -69 -108 88 -7
-54 74 -108 -36 -5 20 -11 86
18 -127 -108 95 -40 -116 -61 -122
45 -19 -24 -88 81 61 9 80
16 -56 32 6 15 7 14 -14
00000000: 2a8e b0f7 cd23 3d23 12b5 fbbe 8210 9df2
00000010: 51dd 8122 bda9 fbdc 0717 6a03 1fdf 0ba6
00000020: ed10 d914 2d1f 1471 911c f81a d6e5 7fb2
00000030: ef50 6f51 e30f 254d d83d c92d 2868 0ac9
00000040: a7c0 7f73 3a52 f3d1 2082 dc20 2646 bde9
00000050: eef4 bf08 a9f9 aed0 36ba d2cc 0fd0 c27f
00000060: cca5 fc23 ebd9 263e df1e c21f 2124 c130
00000070: ec08 3a20 81de 0a22 b26c 60bf e4e3 21f8
00000080: 0d38 67f1 7ffd e8a6 b60a 3ed7 3bc8 0111
00000090: ccd2 ffc6 2ccd 02ae 4bec cfef beef 1bd0
000000a0: d7ae 0727 db26 2b81 c6f3 6522 096a ce5a
000000b0: 0948 302d e57f 0dec f312 ff20 0aee e2e0
000000c0: 3639 3602 b706 9e0a ee5b 7b47 be56 c5bf
000000d0: 564d d512 147f aff2 906a bfd3 bb94 58f9
000000e0: ca4a 94dc fb14 f556 1281 945f d88c c386
000000f0: 2ded e8a8 513d 0950 10c8 2006 0f07 0ef2

tfl.pseudo_qconst29 i1 [24, 1, 1, 96]
42 -93 17 43 43 27 45 -40
54 -39 -72 -37 -29 98 -7 25
59 -43 62 -63 -25 -19 58 -20
-2 49 -47 5 -35 -6 -31 -67
-45 -48 2 19 17 41 -45 -16
-85 -4 -28 -60 12 59 8 -79
2 -29 18 5 -29 -24 54 -127
-66 55 43 -21 -74 -75 -103 -59
-25 25 -41 63 18 64 -57 -29
55 18 -10 -96 82 -56 -74 -58
-39 -86 17 -32 -79 -10 -98 46
-44 39 34 -68 7 -26 22 -79
60 -36 52 100 127 -69 43 -47
6 -106 103 -70 42 -115 27 -65
-47 48 37 -88 -38 15 -71 -13
52 -53 -32 -18 -12 45 -79 99
-30 10 -36 -69 93 36 40 -62
-48 2 29 99 95 -9 29 99
68 -30 56 99 -72 46 -3 93
5 13 58 87 14 21 60 69
-58 -18 -14 -13 -36 -44 -65 70
-75 40 85 -5 -106 64 77 91
3 -41 40 -65 80 64 -85 109
84 -54 -21 -2 77 -83 50 -49
-4 -20 -13 14 -48 36 -18 -20
40 -93 -46 4 -94 -26 24 -53
36 -46 40 -114 18 -66 19 -105
12 43 -74 -43 -44 -66 -31 -15
-21 42 57 -11 -31 106 -29 80
7 63 -93 14 3 -44 -29 -88
40 48 104 -80 89 -55 31 -64
8 78 -63 -99 -67 69 -113 21
00000000: 2aa3 112b 2b1b 2dd8 36d9 b8db e362 f919
00000010: 3bd5 3ec1 e7ed 3aec fe31 d105 ddfa e1bd
00000020: d3d0 0213 1129 d3f0 abfc e4c4 0c3b 08b1
00000030: 02e3 1205 e3e8 3681 be37 2beb b6b5 99c5
00000040: e719 d73f 1240 c7e3 3712 f6a0 52c8 b6c6
00000050: d9aa 11e0 b1f6 9e2e d427 22bc 07e6 16b1
00000060: 3cdc 3464 7fbb 2bd1 0696 67ba 2a8d 1bbf
00000070: d130 25a8 da0f b9f3 34cb e0ee f42d b163
00000080: e20a dcbb 5d24 28c2 d002 1d63 5ff7 1d63
00000090: 44e2 3863 b82e fd5d 050d 3a57 0e15 3c45
000000a0: c6ee f2f3 dcd4 bf46 b528 55fb 9640 4d5b
000000b0: 03d7 28bf 5040 ab6d 54ca ebfe 4dad 32cf
000000c0: fcec f30e d024 eeec 28a3 d204 a2e6 18cb
000000d0: 24d2 288e 12be 1397 0c2b b6d5 d4be e1f1
000000e0: eb2a 39f5 e16a e350 073f a30e 03d4 e3a8
000000f0: 2830 68b0 59c9 1fc0 084e c19d bd45 8f15

tfl.pseudo_qconst31 i1 [1, 5, 5, 96]
106 -125 97 -13 10 58 -69 -86
11 73 -60 51 -63 -67 -51 29
107 -127 22 1 16 48 15 -85
-42 -48 25 -76 67 -19 68 31
-3 18 -48 -18 -13 21 -44 11
1 5 5 -83 -123 30 -71 -5
28 -33 64 69 21 42 69 -94
-27 54 -23 47 -26 -87 108 -17
44 -127 -104 13 -5 -11 59 -8
-5 -25 -24 -127 25 -117 89 18
72 28 53 78 42 -36 123 -19
-71 -95 -42 -8 61 -59 -58 -36
11 -33 95 63 -16 127 -49 53
-89 -16 -57 -12 -122 -82 4 -22
80 -80 90 -28 30 23 -43 -33
-34 -45 25 -112 -10 127 48 -1
34 -19 62 -75 -3 -51 -16 -45
-93 42 -88 -5 -106 79 -5 -18
70 -19 8 -13 -52 45 127 -63
-43 63 -103 65 -31 -1 -84 23
-100 -41 -21 15 35 -45 72 -30
-1 4 30 -53 -15 -70 -27 50
66 -38 -9 80 62 -76 46 44
-13 -123 -69 -74 -78 -55 -72 7
11 -39 -22 -31 -61 10 16 -77
-58 68 -27 -21 -75 -49 -26 11
47 -49 103 2 -34 23 -61 42
-29 -127 -14 -127 -31 -47 66 -34
127 -58 25 -124 4 -30 -1 -88
-27 54 -25 -12 -38 127 -9 -29
33 73 83 -20 7 127 20 -75
8 16 65 36 68 -65 24 -24
00000000: 6a83 61f3 0a3a bbaa 0b49 c433 c1bd cd1d
00000010: 6b81 1601 1030 0fab d6d0 19b4 43ed 441f
00000020: fd12 d0ee f315 d40b 0105 05ad 851e b9fb
00000030: 1cdf 4045 152a 45a2 e536 e92f e6a9 6cef
00000040: 2c81 980d fbf5 3bf8 fbe7 e881 198b 5912
00000050: 481c 354e 2adc 7bed b9a1 d6f8 3dc5 c6dc
00000060: 0bdf 5f3f f07f cf35 a7f0 c7f4 86ae 04ea
00000070: 50b0 5ae4 1e17 d5df ded3 1990 f67f 30ff
00000080: 22ed 3eb5 fdcd f0d3 a32a a8fb 964f fbee
00000090: 46ed 08f3 cc2d 7fc1 d53f 9941 e1ff ac17
000000a0: 9cd7 eb0f 23d3 48e2 ff04 1ecb f1ba e532
000000b0: 42da f750 3eb4 2e2c f385 bbb6 b2c9 b807
000000c0: 0bd9 eae1 c30a 10b3 c644 e5eb b5cf e60b
000000d0: 2fcf 6702 de17 c32a e381 f281 e1d1 42de
000000e0: 7fc6 1984 04e2 ffa8 e536 e7f4 da7f f7e3
000000f0: 2149 53ec 077f 14b5 0810 4124 44bf 18e8

tfl.pseudo_qconst33 i1 [96, 1, 1, 16]
27 74 -91 -25 -56 -77 -89 -47
4 -75 -25 81 -51 10 -127 86
40 -92 -87 -30 127 -17 79 23
-84 -31 -25 -19 35 -71 14 -84
14 -51 -75 -52 72 76 -28 -24
93 72 -59 127 92 14 -84 -28
42 42 -127 10 3 107 41 55
70 8 17 -57 19 0 -7 3
70 10 -38 15 -69 -35 -71 83
-127 -46 -74 0 -52 105 5 75
41 -127 -72 -65 58 -85 8 -8
-122 11 31 95 -82 -61 -86 -24
-43 102 -4 16 -127 -25 -42 -30
-101 -71 21 -51 9 -25 69 -1
60 -3 -127 -65 -76 62 72 -80
-18 42 -53 4 -21 23 76 37
-59 93 30 -30 -10 39 -100 85
104 -50 -127 -4 14 62 -26 -103
-25 52 -95 116 -50 -59 112 79
4 127 -120 -54 -105 -17 -22 79
73 -79 6 55 127 -112 124 89
-16 -78 -13 -51 -85 -86 8 -88
75 -7 25 30 -26 -19 -9 68
-100 79 67 127 26 -23 -41 -83
35 -110 13 87 66 -25 -94 42
34 -13 -127 60 -61 36 26 -28
82 74 -32 73 -18 54 38 -93
-18 22 90 61 29 60 -111 -127
74 -36 -74 -62 43 100 64 73
-68 6 48 -24 3 61 -70 127
-1 118 20 37 -4 -25 55 -83
-51 90 43 -6 -117 -30 -46 127
00000000: 1b4a a5e7 c8b3 a7d1 04b5 e751 cd0a 8156
00000010: 28a4 a9e2 7fef 4f17 ace1 e7ed 23b9 0eac
00000020: 0ecd b5cc 484c e4e8 5d48 c57f 5c0e ace4
00000030: 2a2a 810a 036b 2937 4608 11c7 1300 f903
00000040: 460a da0f bbdd b953 81d2 b600 cc69 054b
00000050: 2981 b8bf 3aab 08f8 860b 1f5f aec3 aae8
00000060: d566 fc10 81e7 d6e2 9bb9 15cd 09e7 45ff
00000070: 3cfd 81bf b43e 48b0 ee2a cb04 eb17 4c25
00000080: c55d 1ee2 f627 9c55 68ce 81fc 0e3e e699
00000090: e734 a174 cec5 704f 047f 88ca 97ef ea4f
000000a0: 49b1 0637 7f90 7c59 f0b2 f3cd abaa 08a8
000000b0: 4bf9 191e e6ed f744 9c4f 437f 1ae9 d7ad
000000c0: 2392 0d57 42e7 a22a 22f3 813c c324 1ae4
000000d0: 524a e049 ee36 26a3 ee16 5a3d 1d3c 9181
000000e0: 4adc b6c2 2b64 4049 bc06 30e8 033d ba7f
000000f0: ff76 1425 fce7 37ad cd5a 2bfa 8be2 d27f

tfl.pseudo_qconst35 i1 [16, 1, 1, 48]
21 -95 84 35 73 110 -74 -127
-63 -26 -25 84 55 48 -78 -40
-19 75 -66 48 70 -32 21 13
-56 -100 1 -102 -4 -45 -35 -17
-74 84 22 70 39 56 35 -106
34 72 40 -41 60 17 91 -50
-10 106 21 8 100 -17 -38 -6
-127 -6 117 63 -104 -89 25 -27
103 -49 31 107 16 8 38 -24
39 -8 122 -42 -15 16 105 -67
16 -101 50 -65 94 -31 -68 77
79 -2 56 119 -15 60 -32 -50
-57 -46 75 19 1 45 -2 78
44 -84 -28 -35 77 -77 -57 83
-87 -8 127 10 -53 77 4 -3
-42 -62 6 -38 38 35 -10 43
93 -31 29 51 95 66 -35 -71
77 -65 -13 -43 55 103 63 -36
-80 -76 69 67 -35 -115 -115 -84
-35 28 -77 -45 50 -13 20 117
-62 -11 15 -13 -11 -26 -97 105
-99 -74 -26 34 50 71 10 83
26 -47 65 -66 25 112 -49 99
-53 81 -48 16 127 40 44 12
63 -48 -109 -20 -3 -35 71 -39
47 10 -61 -14 57 57 15 -98
-32 -5 -3 77 19 7 -32 -67
-68 -103 2 98 56 58 -4 -24
115 -57 -30 114 -4 -93 76 -96
30 -83 -15 -112 -92 -65 127 99
-36 -88 -59 21 22 61 -86 83
105 127 -8 -59 0 -8 -63 -80
00000000: 15a1 5423 496e b681 c1e6 e754 3730 b2d8
00000010: ed4b be30 46e0 150d c89c 019a fcd3 ddef
00000020: b654 1646 2738 2396 2248 28d7 3c11 5bce
00000030: f66a 1508 64ef dafa 81fa 753f 98a7 19e5
00000040: 67cf 1f6b 1008 26e8 27f8 7ad6 f110 69bd
00000050: 109b 32bf 5ee1 bc4d 4ffe 3877 f13c e0ce
00000060: c7d2 4b13 012d fe4e 2cac e4dd 4db3 c753
00000070: a9f8 7f0a cb4d 04fd d6c2 06da 2623 f62b
00000080: 5de1 1d33 5f42 ddb9 4dbf f3d5 3767 3fdc
00000090: b0b4 4543 dd8d 8dac dd1c b3d3 32f3 1475
000000a0: c2f5 0ff3 f5e6 9f69 9db6 e622 3247 0a53
000000b0: 1ad1 41be 1970 cf63 cb51 d010 7f28 2c0c
000000c0: 3fd0 93ec fddd 47d9 2f0a c3f2 3939 0f9e
000000d0: e0fb fd4d 1307 e0bd bc99 0262 383a fce8
000000e0: 73c7 e272 fca3 4ca0 1ead f190 a4bf 7f63
000000f0: dca8 c515 163d aa53 697f f8c5 00f8 c1b0

tfl.pseudo_qconst37 i1 [48, 1, 1, 16]
-21 28 -72 -9 82 60 29 2
-45 29 90 67 41 127 89 35
108 71 -127 -63 -33 -59 20 -21
86 -32 93 38 1 94 -47 -20
-14 -79 37 -73 -84 -21 121 -127
70 31 -100 -2 -6 41 -77 -76
-57 112 3 -12 -81 -118 -127 -67
-11 -29 5 -25 74 -103 72 69
-96 -69 -38 -101 92 27 -127 -33
53 -117 39 -13 99 18 -13 -32
27 0 -76 125 -18 35 -44 -52
-69 -75 -37 -92 -95 116 127 114
70 37 -33 -26 -40 127 -95 78
106 45 -79 -58 -53 -54 -5 101
96 7 26 -33 -5 70 7 72
46 -59 87 35 -44 88 -42 127
73 -89 -55 -72 6 68 103 -11
-87 -37 90 42 -34 127 7 -1
-48 -76 4 60 75 28 65 -99
10 31 70 127 86 57 -30 -111
62 102 23 -25 53 82 35 68
69 91 127 -15 101 -30 -78 61
-39 54 103 -8 43 66 50 -10
-20 127 -27 29 16 36 54 62
-80 -67 11 -38 101 31 -121 81
71 -86 -72 20 64 -48 -127 29
82 72 66 -72 70 46 127 -58
-45 -119 78 0 25 57 -6 97
92 -39 38 -33 28 -10 -59 -41
-52 110 -43 127 -45 -64 -6 -61
-59 127 68 -53 1 71 10 -18
97 5 -21 -32 -52 6 -52 -22
00000000: eb1c b8f7 523c 1d02 d31d 5a43 297f 5923
00000010: 6c47 81c1 dfc5 14eb 56e0 5d26 015e d1ec
00000020: f2b1 25b7 aceb 7981 461f 9cfe fa29 b3b4
00000030: c770 03f4 af8a 81bd f5e3 05e7 4a99 4845
00000040: a0bb da9b 5c1b 81df 358b 27f3 6312 f3e0
00000050: 1b00 b47d ee23 d4cc bbb5 dba4 a174 7f72
00000060: 4625 dfe6 d87f a14e 6a2d b1c6 cbca fb65
00000070: 6007 1adf fb46 0748 2ec5 5723 d458 d67f
00000080: 49a7 c9b8 0644 67f5 a9db 5a2a de7f 07ff
00000090: d0b4 043c 4b1c 419d 0a1f 467f 5639 e291
000000a0: 3e66 17e7 3552 2344 455b 7ff1 65e2 b23d
000000b0: d936 67f8 2b42 32f6 ec7f e51d 1024 363e
000000c0: b0bd 0bda 651f 8751 47aa b814 40d0 811d
000000d0: 5248 42b8 462e 7fc6 d389 4e00 1939 fa61
000000e0: 5cd9 26df 1cf6 c5d7 cc6e d57f d3c0 fac3
000000f0: c57f 44cb 0147 0aee 6105 ebe0 cc06 ccea

tfl.pseudo_qconst39 i1 [16, 1, 1, 48]
-40 -28 -35 -17 -57 19 -66 110
-53 52 76 9 44 -103 36 19
-96 127 1 4 -50 15 -26 86
101 1 -15 -22 100 23 -18 -105
-17 99 -55 61 30 102 -46 0
23 94 -117 6 -14 -72 -22 4
-91 16 10 13 -32 73 -42 69
62 26 38 34 -99 23 7 -77
127 -68 -89 24 101 56 78 -18
-19 8 -46 84 -58 -111 55 -119
-47 -19 79 -50 95 -12 25 -31
-120 109 -53 -7 -32 -54 -127 17
70 59 -105 -11 121 109 -19 19
-33 -104 -74 85 21 47 -42 8
89 -44 19 -83 -62 41 -87 35
57 80 21 29 118 107 -44 127
-15 -57 90 10 18 -12 95 -100
104 79 32 33 -59 59 -34 -62
47 68 -26 35 40 -15 100 -93
59 44 74 127 83 102 119 21
39 -80 -95 -72 54 43 -69 -117
-102 20 -106 -100 50 25 -6 -104
40 -44 -92 96 -20 75 -71 66
81 8 16 68 -88 44 121 75
-46 11 -45 -57 57 -127 -53 21
-93 -51 72 0 -82 15 -111 -74
-68 -90 -18 26 -13 60 -104 48
-68 22 26 -63 -71 27 12 38
1 25 65 -60 -24 20 -109 -38
85 -87 -99 -84 45 -53 2 -97
17 -67 33 38 -125 -72 -15 -60
41 -68 -10 105 50 116 -41 -3
00000000: d8e4 ddef c713 be6e cb34 4c09 2c99 2413
00000010: a07f 0104 ce0f e656 6501 f1ea 6417 ee97
00000020: ef63 c93d 1e66 d200 175e 8b06 f2b8 ea04
00000030: a510 0a0d e049 d645 3e1a 2622 9d17 07b3
00000040: 7fbc a718 6538 4eee ed08 d254 c691 3789
00000050: d1ed 4fce 5ff4 19e1 886d cbf9 e0ca 8111
00000060: 463b 97f5 796d ed13 df98 b655 152f d608
00000070: 59d4 13ad c229 a923 3950 151d 766b d47f
00000080: f1c7 5a0a 12f4 5f9c 684f 2021 c53b dec2
00000090: 2f44 e623 28f1 64a3 3b2c 4a7f 5366 7715
000000a0: 27b0 a1b8 362b bb8b 9a14 969c 3219 fa98
000000b0: 28d4 a460 ec4b b942 5108 1044 a82c 794b
000000c0: d20b d3c7 3981 cb15 a3cd 4800 ae0f 91b6
000000d0: bca6 ee1a f33c 9830 bc16 1ac1 b91b 0c26
000000e0: 0119 41c4 e814 93da 55a9 9dac 2dcb 029f
000000f0: 11bd 2126 83b8 f1c4 29bc f669 3274 d7fd

tfl.pseudo_qconst41 i1 [1, 5, 5, 48]
-5 85 -70 57 -127 -27 -11 127
-15 14 15 -17 47 9 21 40
11 -91 -17 -116 72 -16 32 21
61 -18 -112 -69 99 127 -11 2
-36 -47 79 77 18 24 6 18
102 -15 10 -23 14 28 47 -59
-29 79 -52 14 -77 -55 -52 57
38 20 30 -16 14 23 21 -73
-14 -56 23 -52 -44 17 109 31
-16 -9 38 -75 41 31 -88 76
-90 66 -5 14 -7 15 -41 -45
29 39 64 -23 105 -50 127 -50
-24 19 -24 26 -69 0 -22 88
-5 -64 13 -66 32 -65 31 -60
20 -9 53 36 30 62 102 90
91 115 -78 -25 -85 -34 -126 39
-98 44 23 78 7 26 -125 -17
127 -54 9 47 127 102 30 7
-26 -89 -24 -7 55 -13 40 58
-82 -85 70 -42 76 -17 -12 51
102 -79 -54 68 10 4 -63 -19
-53 96 -45 -30 -51 35 42 127
-31 29 1 -36 -25 91 88 -38
52 -45 7 21 103 64 23 -6
-37 -125 -42 56 -25 -36 4 -18
-127 -38 -9 44 41 -127 -1 -55
127 -16 -30 86 1 -6 -110 26
-21 26 -25 -25 -39 -17 59 123
-124 -89 48 -99 19 93 55 -57
56 -58 127 20 23 -116 -7 -15
15 69 -13 -75 -70 -35 -40 -23
-45 85 68 -59 40 -6 -29 33
00000000: fb55 ba39 81e5 f57f f10e 0fef 2f09 1528
00000010: 0ba5 ef8c 48f0 2015 3dee 90bb 637f f502
00000020: dcd1 4f4d 1218 0612 66f1 0ae9 0e1c 2fc5
00000030: e34f cc0e b3c9 cc39 2614 1ef0 0e17 15b7
00000040: f2c8 17cc d411 6d1f f0f7 26b5 291f a84c
00000050: a642 fb0e f90f d7d3 1d27 40e9 69ce 7fce
00000060: e813 e81a bb00 ea58 fbc0 0dbe 20bf 1fc4
00000070: 14f7 3524 1e3e 665a 5b73 b2e7 abde 8227
00000080: 9e2c 174e 071a 83ef 7fca 092f 7f66 1e07
00000090: e6a7 e8f9 37f3 283a aeab 46d6 4cef f433
000000a0: 66b1 ca44 0a04 c1ed cb60 d3e2 cd23 2a7f
000000b0: e11d 01dc e75b 58da 34d3 0715 6740 17fa
000000c0: db83 d638 e7dc 04ee 81da f72c 2981 ffc9
000000d0: 7ff0 e256 01fa 921a eb1a e7e7 d9ef 3b7b
000000e0: 84a7 309d 135d 37c7 38c6 7f14 178c f9f1
000000f0: 0f45 f3b5 badd d8e9 d355 44c5 28fa e321

tfl.pseudo_qconst43 i1 [48, 1, 1, 16]
5 32 -123 -9 56 31 -46 -127
50 103 73 80 -121 1 -112 -28
7 -78 -67 101 13 29 -25 95
-80 47 56 63 -55 -127 -46 2
-127 -75 20 -72 77 -11 -7 -16
-36 -95 -16 -105 -53 -38 -12 -26
-24 54 25 33 -7 -70 98 81
-120 -38 -26 127 88 98 5 79
14 36 -117 -2 76 -33 17 114
61 -127 -78 23 -81 -98 35 52
-51 -26 -27 -7 30 1 127 24
78 12 -6 7 11 53 53 114
38 66 4 86 -80 -7 -2 111
23 31 31 -62 127 -65 15 40
-49 -19 49 32 25 9 -51 33
-52 72 127 85 14 73 89 -43
-73 10 -46 35 18 8 34 19
34 46 95 127 -20 -27 97 60
48 102 90 42 73 -112 96 92
67 26 105 -127 12 -53 -6 -68
41 -90 -6 97 26 -49 -80 -67
-86 -70 9 74 77 -127 25 86
-7 -19 127 80 -1 54 -58 62
-46 -17 63 -19 -80 -60 -61 109
59 127 -45 79 31 -23 34 -92
34 -95 -114 2 55 48 -38 9
35 87 10 66 8 -74 48 39
67 -34 127 -70 80 90 92 51
91 -123 -82 127 -26 -102 -124 -98
117 64 -38 11 71 65 81 61
-78 -20 95 -4 -7 7 127 16
44 80 4 58 41 -7 -90 -3
00000000: 0520 85f7 381f d281 3267 4950 8701 90e4
00000010: 07b2 bd65 0d1d e75f b02f 383f c981 d202
00000020: 81b5 14b8 4df5 f9f0 dca1 f097 cbda f4e6
00000030: e836 1921 f9ba 6251 88da e67f 5862 054f
00000040: 0e24 8bfe 4cdf 1172 3d81 b217 af9e 2334
00000050: cde6 e5f9 1e01 7f18 4e0c fa07 0b35 3572
00000060: 2642 0456 b0f9 fe6f 171f 1fc2 7fbf 0f28
00000070: cfed 3120 1909 cd21 cc48 7f55 0e49 59d5
00000080: b70a d223 1208 2213 222e 5f7f ece5 613c
00000090: 3066 5a2a 4990 605c 431a 6981 0ccb fabc
000000a0: 29a6 fa61 1acf b0bd aaba 094a 4d81 1956
000000b0: f9ed 7f50 ff36 c63e d2ef 3fed b0c4 c36d
000000c0: 3b7f d34f 1fe9 22a4 22a1 8e02 3730 da09
000000d0: 2357 0a42 08b6 3027 43de 7fba 505a 5c33
000000e0: 5b85 ae7f e69a 849e 7540 da0b 4741 513d
000000f0: b2ec 5ffc f907 7f10 2c50 043a 29f9 a6fd

tfl.pseudo_qconst45 i1 [16, 1, 1, 24]
69 53 13 -99 -2 -61 -81 -28
105 -51 -79 52 -110 -82 -92 -124
127 96 120 104 115 -119 -33 -86
76 -1 30 42 58 50 59 -20
15 -12 -13 127 -5 -27 43 51
34 33 -34 -8 -63 44 -46 -22
127 47 -43 49 -94 75 -59 115
113 42 35 -3 -28 72 48 -71
-22 -65 -28 119 -18 -5 95 66
14 -82 84 -16 -81 -80 -54 28
25 -77 -10 -17 -89 -86 -52 -87
38 62 68 52 -50 -68 67 -127
76 122 -122 -114 0 -16 42 -47
16 -60 28 -37 -57 -73 -127 -104
-55 22 -35 -71 -78 -51 -24 9
25 -93 85 49 -21 63 -127 1
-87 -5 -10 11 -37 32 -66 96
-37 -105 32 -86 23 -78 -19 86
31 -100 -125 -95 -124 -25 1 59
-96 103 51 45 16 -52 -30 45
-86 -97 -70 -72 13 97 -70 127
-36 90 14 63 -107 -49 -52 -51
69 5 -29 35 105 -42 75 78
-127 -9 82 6 81 54 -2 -15
-77 -9 15 -120 8 -19 -74 -39
-127 -48 3 74 67 -66 24 -120
-92 -82 76 95 -116 -83 53 70
79 65 121 -90 -5 -12 60 51
127 -24 -74 -64 -81 -5 61 -61
67 -15 57 39 -29 36 93 33
58 72 -11 -96 92 -79 67 -1
80 -127 -87 2 79 -39 47 59
00000000: 4535 0d9d fec3 afe4 69cd b134 92ae a484
00000010: 7f60 7868 7389 dfaa 4cff 1e2a 3a32 3bec
00000020: 0ff4 f37f fbe5 2b33 2221 def8 c12c d2ea
00000030: 7f2f d531 a24b c573 712a 23fd e448 30b9
00000040: eabf e477 eefb 5f42 0eae 54f0 afb0 ca1c
00000050: 19b3 f6ef a7aa cca9 263e 4434 cebc 4381
00000060: 4c7a 868e 00f0 2ad1 10c4 1cdb c7b7 8198
00000070: c916 ddb9 b2cd e809 19a3 5531 eb3f 8101
00000080: a9fb f60b db20 be60 db97 20aa 17b2 ed56
00000090: 1f9c 83a1 84e7 013b a067 332d 10cc e22d
000000a0: aa9f bab8 0d61 ba7f dc5a 0e3f 95cf cccd
000000b0: 4505 e323 69d6 4b4e 81f7 5206 5136 fef1
000000c0: b3f7 0f88 08ed b6d9 81d0 034a 43be 1888
000000d0: a4ae 4c5f 8cad 3546 4f41 79a6 fbf4 3c33
000000e0: 7fe8 b6c0 affb 3dc3 43f1 3927 e324 5d21
000000f0: 3a48 f5a0 5cb1 43ff 5081 a902 4fd9 2f3b

tfl.pseudo_qconst47 i1 [24, 1, 1, 8]
92 125 -127 -105 65 -60 69 -92
8 -127 26 -13 -61 35 41 -74
47 32 55 118 127 27 -77 -5
109 -127 18 -5 39 63 77 -19
127 54 8 -111 40 -3 -79 25
8 84 -101 -73 -25 27 127 9
-127 40 -4 -75 6 58 -127 56
-127 -99 26 52 75 19 -67 23
6 -127 83 -80 76 26 -42 -14
-96 -25 -3 79 54 -28 127 -48
18 -30 123 -39 -127 23 -18 52
-53 -127 -7 -52 83 -46 -93 38
4 -34 82 52 68 73 -127 5
-44 -17 -90 -13 127 -99 -38 67
78 80 37 -126 127 -42 121 99
78 -55 16 -115 109 -18 19 -127
60 45 37 -116 1 127 27 2
37 -79 -111 127 96 89 -14 -90
-70 39 8 -83 -63 -127 -12 17
92 17 0 127 -10 41 66 -38
-70 28 77 -30 -18 -51 -127 27
-17 -80 91 -68 53 -43 -127 -14
-114 -89 -127 -1 -52 16 -4 -16
-19 8 -56 98 -13 -19 127 -60
00000000: 5c7d 8197 41c4 45a4 0881 1af3 c323 29b6
00000010: 2f20 3776 7f1b b3fb 6d81 12fb 273f 4ded
00000020: 7f36 0891 28fd b119 0854 9bb7 e71b 7f09
00000030: 8128 fcb5 063a 8138 819d 1a34 4b13 bd17
00000040: 0681 53b0 4c1a d6f2 a0e7 fd4f 36e4 7fd0
00000050: 12e2 7bd9 8117 ee34 cb81 f9cc 53d2 a326
00000060: 04de 5234 4449 8105 d4ef a6f3 7f9d da43
00000070: 4e50 2582 7fd6 7963 4ec9 108d 6dee 1381
00000080: 3c2d 258c 017f 1b02 25b1 917f 6059 f2a6
00000090: ba27 08ad c181 f411 5c11 007f f629 42da
000000a0: ba1c 4de2 eecd 811b efb0 5bbc 35d5 81f2
000000b0: 8ea7 81ff cc10 fcf0 ed08 c862 f3ed 7fc4

tfl.pseudo_qconst49 i1 [8, 1, 1, 24]
-48 -67 68 -100 83 84 101 80
80 127 -43 77 -45 -76 -11 29
96 -52 94 -102 -33 72 55 6
25 -20 104 -125 116 -14 -120 -47
120 -16 -37 -54 69 106 5 -84
-76 127 -18 -61 114 60 14 25
-32 -50 74 -63 -105 114 -98 52
-127 70 -127 -71 -50 90 -20 -69
-94 -55 -6 -42 -18 -2 -35 90
17 -31 -67 -113 -127 -33 -82 -64
-34 19 23 21 54 -13 -79 -47
-94 -90 56 102 56 -52 93 -16
40 -38 13 37 -123 -101 29 -63
48 -46 -121 -76 127 -80 -37 -123
-122 -5 -121 -122 23 15 78 -3
-70 -42 109 13 42 -4 113 -127
96 -56 -19 80 -37 -18 44 -14
76 97 91 -24 -84 2 -111 103
-32 -65 22 124 94 44 47 105
-4 13 -53 -54 -3 -35 -47 64
-89 41 -68 57 127 19 -68 80
58 68 -14 22 -20 -71 -10 1
-19 -105 52 79 43 -63 34 56
77 60 -127 -4 -56 15 20 7
00000000: d0bd 449c 5354 6550 507f d54d d3b4 f51d
00000010: 60cc 5e9a df48 3706 19ec 6883 74f2 88d1
00000020: 78f0 dbca 456a 05ac b47f eec3 723c 0e19
00000030: e0ce 4ac1 9772 9e34 8146 81b9 ce5a ecbb
00000040: a2c9 fad6 eefe dd5a 11e1 bd8f 81df aec0
00000050: de13 1715 36f3 b1d1 a2a6 3866 38cc 5df0
00000060: 28da 0d25 859b 1dc1 30d2 87b4 7fb0 db85
00000070: 86fb 8786 170f 4efd bad6 6d0d 2afc 7181
00000080: 60c8 ed50 dbee 2cf2 4c61 5be8 ac02 9167
00000090: e0bf 167c 5e2c 2f69 fc0d cbca fddd d140
000000a0: a729 bc39 7f13 bc50 3a44 f216 ecb9 f601
000000b0: ed97 344f 2bc1 2238 4d3c 81fc c80f 1407

tfl.pseudo_qconst51 i1 [1, 5, 5, 24]
-44 19 109 -22 26 -26 63 42
93 35 -127 -73 -9 -22 -10 -65
20 -44 -20 50 -74 -127 -95 -68
28 123 -17 11 44 127 57 -37
93 -127 -58 55 27 38 9 -127
-40 20 -20 -51 37 -45 96 83
31 76 15 -51 45 29 42 -20
-55 -120 -104 92 -3 103 -38 -8
27 -102 81 21 -69 86 -50 77
25 29 -6 -39 106 46 11 16
-78 -69 -3 113 -68 66 25 -5
6 56 -25 5 93 102 -79 22
0 -40 -38 28 127 -85 -71 -27
-30 -105 36 56 -33 -39 -43 26
11 36 -127 -44 102 38 39 -45
11 80 3 -23 35 -24 -41 12
72 24 -126 -9 61 -3 -93 -17
-14 -5 -53 1 -13 28 40 -43
-2 106 -81 38 -5 41 -43 -10
98 -57 -55 -41 -48 12 -86 6
-63 -13 -45 -18 -4 -53 90 50
-25 113 -24 -1 -15 7 -110 -63
57 -14 2 -2 -79 -24 -3 -32
-55 -123 50 60 -127 -86 -43 -62
39 127 -28 -49 -22 25 -114 2
12 -95 8 127 -48 -110 70 -31
47 89 -64 39 49 33 53 -122
-94 36 -37 -81 77 -76 -101 -51
1 -23 53 76 -44 11 43 -1
24 15 -12 -14 20 -73 -61 -53
9 -44 -51 8 -33 -59 -55 48
27 8 -66 -80 30 -16 9 20
00000000: d413 6dea 1ae6 3f2a 5d23 81b7 f7ea f6bf
00000010: 14d4 ec32 b681 a1bc 1c7b ef0b 2c7f 39db
00000020: 5d81 c637 1b26 0981 d814 eccd 25d3 6053
00000030: 1f4c 0fcd 2d1d 2aec c988 985c fd67 daf8
00000040: 1b9a 5115 bb56 ce4d 191d fad9 6a2e 0b10
00000050: b2bb fd71 bc42 19fb 0638 e705 5d66 b116
00000060: 00d8 da1c 7fab b9e5 e297 2438 dfd9 d51a
00000070: 0b24 81d4 6626 27d3 0b50 03e9 23e8 d70c
00000080: 4818 82f7 3dfd a3ef f2fb cb01 f31c 28d5
00000090: fe6a af26 fb29 d5f6 62c7 c9d7 d00c aa06
000000a0: c1f3 d3ee fccb 5a32 e771 e8ff f107 92c1
000000b0: 39f2 02fe b1e8 fde0 c985 323c 81aa d5c2
000000c0: 277f e4cf ea19 8e02 0ca1 087f d092 46e1
000000d0: 2f59 c027 3121 3586 a224 dbaf 4db4 9bcd
000000e0: 01e9 354c d40b 2bff 180f f4f2 14b7 c3cb
000000f0: 09d4 cd08 dfc5 c930 1b08 beb0 1ef0 0914

tfl.pseudo_qconst53 i1 [24, 1, 1, 8]
72 70 1 127 -8 29 -3 -61
-57 59 -60 9 -69 -127 -20 -22
99 -1 45 -127 49 58 -13 -74
-110 127 89 -3 -88 -26 -36 -42
-59 -33 -35 -103 102 45 127 97
-107 -80 -40 12 10 24 -127 -21
33 -1 -24 95 -74 127 -26 72
116 -3 -73 46 28 -18 -6 127
-75 17 127 -23 -2 -31 -83 69
-3 21 -127 118 -118 -29 -31 80
10 -127 -79 -82 -81 83 -18 -96
-127 78 -92 84 53 73 102 102
-61 -106 49 116 -127 16 108 -53
97 -114 68 -17 -81 -40 127 66
103 15 72 127 -35 37 39 49
-127 -50 -106 121 54 -21 107 101
-39 17 -95 32 103 -127 27 6
-127 -62 8 -3 -86 24 115 -71
-88 127 -72 18 -31 -34 -26 -107
109 -68 119 -127 56 27 49 36
66 16 61 101 127 76 -71 90
-33 -5 8 52 3 30 -127 78
26 -25 -127 -113 60 54 -104 73
-127 92 -8 43 -32 24 -101 -45
00000000: 4846 017f f81d fdc3 c73b c409 bb81 ecea
00000010: 63ff 2d81 313a f3b6 927f 59fd a8e6 dcd6
00000020: c5df dd99 662d 7f61 95b0 d80c 0a18 81eb
00000030: 21ff e85f b67f e648 74fd b72e 1cee fa7f
00000040: b511 7fe9 fee1 ad45 fd15 8176 8ae3 e150
00000050: 0a81 b1ae af53 eea0 814e a454 3549 6666
00000060: c396 3174 8110 6ccb 618e 44ef afd8 7f42
00000070: 670f 487f dd25 2731 81ce 9679 36eb 6b65
00000080: d911 a120 6781 1b06 81c2 08fd aa18 73b9
00000090: a87f b812 e1de e695 6dbc 7781 381b 3124
000000a0: 4210 3d65 7f4c b95a dffb 0834 031e 814e
000000b0: 1ae7 818f 3c36 9849 815c f82b e018 9bd3

tfl.pseudo_qconst55 i1 [8, 1, 1, 48]
127 -26 -68 -17 -52 -34 -69 21
91 -39 114 55 107 -17 59 75
-65 31 105 62 -28 10 65 107
54 -13 109 -78 90 -40 94 3
81 -91 -64 58 13 66 -62 76
-49 -69 101 -24 -97 80 -47 2
-20 -127 -48 -82 -81 -96 -77 -18
-95 72 52 -109 72 82 -45 -42
-82 -99 -4 117 -41 -26 11 102
68 -87 61 7 -107 31 -16 27
100 34 -16 -61 49 70 -9 72
-51 -67 50 -4 -28 -70 -70 57
51 37 -109 88 -98 43 33 89
-50 -83 -74 43 55 -82 -14 82
-42 81 44 -55 -102 41 -8 -51
-85 -43 46 76 -14 83 67 -81
-42 -41 35 -66 -90 46 15 -39
64 -98 75 127 -35 29 121 -21
-52 39 54 -64 -63 61 -115 -66
-20 27 33 13 -23 -40 45 37
0 -76 -62 -115 74 51 65 3
-100 43 -58 -34 -62 54 -61 82
60 -83 -24 33 127 -110 -43 -56
7 -8 69 40 -75 -66 -97 23
-52 -36 106 -22 -76 -41 17 46
126 -36 -45 -41 -85 108 -12 115
-54 24 -80 -64 -38 -32 -105 94
79 -117 85 35 27 -115 -13 66
31 58 -22 88 110 -124 115 -94
8 -77 127 -27 127 75 -93 -81
-54 79 -52 -81 47 -5 -107 4
-23 33 -3 -8 -34 -93 -127 -58
00000000: 7fe6 bcef ccde bb15 5bd9 7237 6bef 3b4b
00000010: bf1f 693e e40a 416b 36f3 6db2 5ad8 5e03
00000020: 51a5 c03a 0d42 c24c cfbb 65e8 9f50 d102
00000030: ec81 d0ae afa0 b3ee a148 3493 4852 d3d6
00000040: ae9d fc75 d7e6 0b66 44a9 3d07 951f f01b
00000050: 6422 f0c3 3146 f748 cdbd 32fc e4ba ba39
00000060: 3325 9358 9e2b 2159 cead b62b 37ae f252
00000070: d651 2cc9 9a29 f8cd abd5 2e4c f253 43af
00000080: d6d7 23be a62e 0fd9 409e 4b7f dd1d 79eb
00000090: cc27 36c0 c13d 8dbe ec1b 210d e9d8 2d25
000000a0: 00b4 c28d 4a33 4103 9c2b c6de c236 c352
000000b0: 3cad e821 7f92 d5c8 07f8 4528 b5be 9f17
000000c0: ccdc 6aea b4d7 112e 7edc d3d7 ab6c f473
000000d0: ca18 b0c0 dae0 975e 4f8b 5523 1b8d f342
000000e0: 1f3a ea58 6e84 73a2 08b3 7fe5 7f4b a3af
000000f0: ca4f ccaf 2ffb 9504 e921 fdf8 dea3 81c6

tfl.pseudo_qconst57 i1 [48, 1, 1, 16]
127 -17 -69 -51 -104 -102 -33 -23
123 -24 96 115 -101 -18 103 -37
98 72 77 -26 45 -47 -57 70
53 -98 18 2 -55 69 9 -127
31 -78 -42 27 62 -40 35 100
-63 112 52 37 44 30 31 127
-2 89 14 -14 27 5 80 16
80 124 -4 -37 127 64 -42 -68
-26 -58 29 37 -95 -1 33 17
80 34 31 70 6 -127 114 -44
113 73 12 48 91 95 -89 -54
-127 4 -18 32 5 17 -4 -76
-127 15 -13 86 -5 27 43 -63
15 57 -45 36 -24 11 -20 74
-90 -15 -127 -51 70 -52 73 -106
83 127 88 8 61 -119 -45 -17
81 -117 40 -86 -62 96 -16 -68
124 -70 23 -27 -124 127 -19 -97
-73 67 -31 -88 84 59 63 -78
-127 20 21 62 -54 75 7 -44
-101 36 119 15 -48 -127 -1 -50
-21 -79 84 -76 35 76 31 -97
13 -30 101 47 -110 94 38 48
23 109 58 108 -32 -70 76 -127
0 -45 -127 -37 35 35 -53 29
-12 20 40 51 103 16 80 66
-30 14 -38 -88 -23 106 79 106
107 127 28 10 -57 88 110 -6
81 0 -27 5 -49 58 5 5
-38 -54 -34 51 77 66 127 14
34 -33 17 -19 -14 -40 -118 101
-70 -120 -31 -34 -127 77 11 -86
00000000: 7fef bbcd 989a dfe9 7be8 6073 9bee 67db
00000010: 6248 4de6 2dd1 c746 359e 1202 c945 0981
00000020: 1fb2 d61b 3ed8 2364 c170 3425 2c1e 1f7f
00000030: fe59 0ef2 1b05 5010 507c fcdb 7f40 d6bc
00000040: e6c6 1d25 a1ff 2111 5022 1f46 0681 72d4
00000050: 7149 0c30 5b5f a7ca 8104 ee20 0511 fcb4
00000060: 810f f356 fb1b 2bc1 0f39 d324 e80b ec4a
00000070: a6f1 81cd 46cc 4996 537f 5808 3d89 d3ef
00000080: 518b 28aa c260 f0bc 7cba 17e5 847f ed9f
00000090: b743 e1a8 543b 3fb2 8114 153e ca4b 07d4
000000a0: 9b24 770f d081 ffce ebb1 54b4 234c 1f9f
000000b0: 0de2 652f 925e 2630 176d 3a6c e0ba 4c81
000000c0: 00d3 81db 2323 cb1d f414 2833 6710 5042
000000d0: e20e daa8 e96a 4f6a 6b7f 1c0a c758 6efa
000000e0: 5100 e505 cf3a 0505 daca de33 4d42 7f0e
000000f0: 22df 11ed f2d8 8a65 ba88 e1de 814d 0baa

tfl.pseudo_qconst59 i1 [16, 1, 1, 48]
30 -5 113 -39 51 39 33 -13
-60 59 -52 15 -71 54 -84 127
-24 -50 67 -123 4 -24 -44 64
-86 3 -57 -85 3 -51 -85 31
-33 -46 -117 -76 -19 64 80 25
83 74 72 -52 44 49 -40 95
-17 50 -127 -73 11 3 69 78
-19 -11 39 -10 75 -2 -68 -57
-30 -114 -34 -43 28 -91 61 -7
-24 24 -98 77 -90 -111 -40 48
-72 -116 -38 -59 -42 -73 -26 -92
83 -19 -80 -48 -40 -56 -95 81
42 102 18 92 84 92 15 -58
64 91 7 38 -69 36 -58 67
-33 23 73 -56 37 80 32 -48
90 -25 107 -13 -47 -33 67 -31
55 -46 -27 -11 -74 65 103 -53
-28 52 127 59 102 40 -11 6
12 91 88 -45 34 91 3 47
-62 -40 -24 94 14 10 -103 -18
38 80 -32 19 106 25 -45 -16
33 -65 51 -36 57 30 -61 -87
117 -31 20 127 -90 4 96 6
-36 26 13 22 109 89 40 -69
77 51 -111 -102 91 -16 -96 -51
-31 -45 -75 72 9 -10 75 -47
77 -63 -120 21 -119 -45 14 -19
93 -16 78 83 -91 -77 -76 77
14 71 76 -46 -57 35 4 -100
-127 52 77 -6 54 -99 -105 -15
-52 -63 -94 -112 22 -67 -91 3
-11 -117 40 -121 -101 54 28 42
00000000: 1efb 71d9 3327 21f3 c43b cc0f b936 ac7f
00000010: e8ce 4385 04e8 d440 aa03 c7ab 03cd ab1f
00000020: dfd2 8bb4 ed40 5019 534a 48cc 2c31 d85f
00000030: ef32 81b7 0b03 454e edf5 27f6 4bfe bcc7
00000040: e28e ded5 1ca5 3df9 e818 9e4d a691 d830
00000050: b88c dac5 d6b7 e6a4 53ed b0d0 d8c8 a151
00000060: 2a66 125c 545c 0fc6 405b 0726 bb24 c643
00000070: df17 49c8 2550 20d0 5ae7 6bf3 d1df 43e1
00000080: 37d2 e5f5 b641 67cb e434 7f3b 6628 f506
00000090: 0c5b 58d3 225b 032f c2d8 e85e 0e0a 99ee
000000a0: 2650 e013 6a19 d3f0 21bf 33dc 391e c3a9
000000b0: 75e1 147f a604 6006 dc1a 0d16 6d59 28bb
000000c0: 4d33 919a 5bf0 a0cd e1d3 b548 09f6 4bd1
000000d0: 4dc1 8815 89d3 0eed 5df0 4e53 a5b3 b44d
000000e0: 0e47 4cd2 c723 049c 8134 4dfa 369d 97f1
000000f0: ccc1 a290 16bd a503 f58b 2887 9b36 1c2a
